best_model.pt (torch, 79672 bytes, 7 tensors)

sensor_embedding.weight f4 [1, 4]
000000 f5 37 04 3f 5d 49 77 3e a3 1f 98 3f 88 a6 e0 3e
       0.51647884 0.2414908 1.1884655 0.43877053

lstm.weight_ih_l0 f4 [256, 8]
000000 6a 13 8b 3d 6e d1 8d bc 45 d5 46 3d b9 ed db bc
       0.06790812 -0.017311778 0.048543233 -0.026846753
000010 f8 23 d1 3d 58 7e c9 3c 88 72 0d 3e b2 83 77 3d
       0.102119386 0.024596378 0.13813221 0.06042833
000020 8f 4a 9a bd bf c8 72 3c 7b 34 a6 bd 6d b7 1c bd
       -0.07533752 0.014818369 -0.081154786 -0.038260866
000030 6e f1 ab bc d7 54 e5 3d d9 02 8d bd 1e f0 e3 bc
       -0.020989146 0.111978225 -0.06885309 -0.027824458
000040 f3 17 d8 bb 8d 36 3e bd 79 c6 a5 bc 3c 1c 1f be
       -0.006594652 -0.046438742 -0.02023624 -0.15538114
000050 67 14 1d 3e 56 2e 86 bd 1a 55 0c 3e be 48 7b 3d
       0.15339814 -0.06551807 0.13704339 0.06134867
000060 a0 87 07 bc 0c 15 e0 3d 09 94 1f 3d 9c 95 f6 3d
       -0.008272082 0.109415144 0.038959537 0.120402545
000070 02 da 3f 3c 7e 6a 26 bd 15 2a 01 3d 3f 96 11 bd
       0.011709692 -0.040628903 0.031534273 -0.035543676
000080 ce 41 29 3d d7 56 cd 3d f6 2c 8b 3d 11 9a 6f bd
       0.041322522 0.10026329 0.06795685 -0.05849654
000090 33 03 c4 3d 0f 6e 3d 3d 04 16 b2 3d 0b 54 56 bd
       0.09570923 0.04624754 0.086956054 -0.052326243
0000a0 38 6d 97 bd 2a 04 c3 3a 0d 51 92 bd b7 ae 01 3e
       -0.07393879 0.001487856 -0.071443655 0.12664305
0000b0 24 1d a1 3d 7c 2c c1 3d 29 5e a8 3d 5f 0a 26 3d
       0.07866886 0.09432313 0.082210846 0.040537234
0000c0 45 a2 8f 3d 75 77 ee bd e5 78 f0 3c ba a0 82 bd
       0.07013372 -0.11643878 0.029354522 -0.063783124
0000d0 36 ce 2d 3d e1 53 1f bd d4 c3 2c 3d c5 ee b4 bc
       0.042432986 -0.038898353 0.042178944 -0.02208651
0000e0 7a a0 92 3d 52 49 d9 bd 7c e8 e4 bd 38 ea e4 bd
       0.07159515 -0.10609688 -0.111771554 -0.11177486
0000f0 6c 4c ed 3d 43 18 3b 3d c9 0a fd 3d 1f 5f cb bd
       0.11586842 0.045677435 0.12355573 -0.09930252
000100 e2 e1 d2 bd 00 53 9d bd 7c f4 ce bd 7f 41 08 3d
       -0.1029699 -0.076818466 -0.101052254 0.033265587
000110 06 b6 75 3d f5 2e f2 3d 21 d9 48 bd f3 12 8e bd
       0.059988044 0.118253626 -0.049035195 -0.06937208
000120 e7 11 c6 3d d3 94 a4 bc 79 11 e4 3d 66 40 c0 3b
       0.09671383 -0.020090496 0.11136145 0.005867052
000130 bb fd ca 3d f3 4f 8d bd 3e 7f 11 bd 60 b7 86 3d
       0.099116765 -0.06900015 -0.03552174 0.06577945
000140 13 2f 83 3d f7 f8 bc 3b c8 aa e0 3d 45 0b f6 3d
       0.06405463 0.0057669836 0.10970074 0.12013868
000150 15 ba 69 bd 06 13 06 bd 35 54 17 3e 2d 67 0c bc
       -0.057062227 -0.032732986 0.14778216 -0.008569521
000160 ea 15 5d bd ac b9 05 be a8 c8 be bd 93 8c 1e 3c
       -0.053975977 -0.1305911 -0.09315616 0.00967707
000170 5d 7b 51 3c 97 50 7c bd 41 61 04 3d e6 d2 65 bd
       0.01278576 -0.061600294 0.03231931 -0.05610933
000180 9a aa 8f bd 2d ed 06 bd c3 cd bc bd fa 91 7f bd
       -0.070149615 -0.032941032 -0.092189334 -0.062395073
000190 49 0a 25 3e 78 04 76 3d 8e 03 99 3d 46 26 a4 bd
       0.16117205 0.060062855 0.07471381 -0.080151126
0001a0 41 d9 f1 bd d3 f8 9e bd 3b aa a7 3c 29 2b df bd
       -0.11809016 -0.07762303 0.020466914 -0.10896904
0001b0 f9 10 73 bd 8f fd a2 bd cb ff b2 bb ff a8 54 bd
       -0.05934236 -0.07958519 -0.005462622 -0.05191898
0001c0 0e f8 08 3b c8 53 97 bd 72 db 23 bd 61 91 de bc
       0.0020899805 -0.07389027 -0.0400042 -0.027168931
0001d0 32 1e 8a bc 72 3d 94 bd 3f b1 05 3e ae 8c 8e 3a
       -0.016860101 -0.07238282 0.13055895 0.0010875666
0001e0 0e 11 be 3d 0f 4f c7 3c 69 0f 6e bd 48 0d 09 3e
       0.09280597 0.02432969 -0.058120165 0.13383973
0001f0 ed 55 4b bc f3 d2 d0 bc 90 8e a7 bd 41 6a d0 bd
       -0.012410623 -0.025491213 -0.081814885 -0.10176516
000200 a0 7f f4 3c 9c ee 07 bd c7 1c 39 3b ca e2 17 be
       0.029846013 -0.03318654 0.0028245912 -0.14832607
000210 b8 6f 0b 3e ae a6 44 bd 6f 5c b2 3c 9e 64 8e 3d
       0.13616836 -0.04801052 0.021772591 0.06952785
000220 4c cb 8c 3c e5 5f 5b 3d 29 d0 97 3d e4 24 0e be
       0.017186783 0.05355825 0.0741275 -0.1388126
000230 7c 27 3d 3d f8 c5 19 bd e2 a2 03 3a c0 be a0 bd
       0.046180233 -0.037542313 0.0005021525 -0.07848883
000240 d7 40 dd 3d 2e 72 c7 bd 5c 4c 21 3d b9 2f 88 3c
       0.10803383 -0.09738575 0.039379463 0.016624318
000250 7a 8c 53 3d 02 8c 66 bd 28 6f ff 3d 59 94 1d 3d
       0.05164764 -0.056285866 0.12472373 0.038471553
000260 5d a8 d4 3b 7a 0b f5 bd 53 5c 02 3d 9d 95 20 bd
       0.006489797 -0.119650796 0.03182633 -0.039205182
000270 4f d3 85 bd 13 92 c9 3d 15 1a a1 3c 6b 1d 9e bd
       -0.065344445 0.098423146 0.019665757 -0.07720455
000280 9d 52 e6 bc 62 e1 ee 3c 00 38 d6 3d f2 ed 3d 3b
       -0.028115565 0.029160205 0.104599 0.0028980938
000290 7d ad ac bd 20 63 63 bd 7d 2e da bd 5e ee 00 3d
       -0.08431528 -0.055514455 -0.10653398 0.031477325
0002a0 4e b3 06 3e d9 b4 a9 bd ff 4d 5f 3d 5e 59 b8 3d
       0.13154337 -0.08286447 0.054517742 0.090014204
0002b0 53 b4 6d 3d 8c 76 11 bc c9 d5 cd 3d d6 f6 ce 3d
       0.0580333 -0.008878361 0.10050542 0.10105674
0002c0 9f 4e 63 3c 56 47 60 bd 18 8c 4d bd 89 d0 77 bb
       0.013873725 -0.05475553 -0.050182432 -0.0037813506
0002d0 6d 45 6d 3c 81 03 81 b9 5c f9 ed 3d cb 40 13 3e
       0.014481884 -0.00024607408 0.11619827 0.14380185
0002e0 49 6f fd 3c e7 22 7b 3c 28 9a 0e 3d 55 31 d1 3c
       0.030936854 0.015328146 0.034814984 0.025536219
0002f0 90 56 78 3d 2f 10 86 3d 66 9f a5 bd 47 5d 5d bc
       0.060629427 0.065460555 -0.080870435 -0.013511009
000300 b1 31 01 3e a1 b0 8e 3d 69 b9 23 3c c0 e6 71 bd
       0.12616612 0.06967283 0.009992936 -0.05905795
000310 01 be c6 bd ae 5b 07 be 2a 94 7b bd a7 4f af 3c
       -0.09704209 -0.13218567 -0.061420597 0.021400286
000320 c0 78 97 3d 9b 08 55 3d 23 ae 0f be aa fa d6 bd
       0.07396078 0.05201016 -0.14031272 -0.10497029
000330 b2 9a 4e bc 18 3a 01 3e 80 41 cd 3c f8 12 ce bc
       -0.012610124 0.12619817 0.025055647 -0.02515553
000340 6e a8 c1 3d 99 75 9b bb 91 f2 07 bd 3c 2b 0e 3e
       0.094559535 -0.0047442433 -0.033190314 0.1388368
000350 b1 d5 e2 bc 44 1e 84 3b 37 f5 c2 bd 18 94 e6 3d
       -0.027689787 0.0040319283 -0.09519427 0.112587154
000360 55 1b ea 3d b2 7a 85 3d 3a 7c 3a bd 61 6e a7 bd
       0.114309944 0.06517543 -0.045528628 -0.0817535
000370 10 93 84 bd c8 e6 04 3e 2b 08 c6 3d 52 3a 11 3e
       -0.064733624 0.12978661 0.09669527 0.14182404
000380 a6 c7 d3 3d 5a 7a 8e 3d ec fc c2 3c 2b 49 8f bd
       0.10340814 0.069569305 0.023802243 -0.069963776
000390 1b cd a7 bd b3 ae ba bd ae 9b 9b 3d 85 3a 14 bd
       -0.08193418 -0.091153525 0.07598053 -0.03618862
0003a0 bd e7 4e bd 1f 23 c7 bd 25 44 c7 3c 3c 46 27 bd
       -0.05051397 -0.09723496 0.024324486 -0.040838465
0003b0 a5 2b 21 bd a8 24 ab 3d 2f c1 a4 3b b3 3c f4 3d
       -0.039348263 0.08356601 0.005027912 0.1192564
0003c0 32 c3 a7 bd c4 b0 08 be a7 16 20 bd f5 db 9e bd
       -0.081915274 -0.1334868 -0.039084103 -0.07756797
0003d0 95 bb 12 3c 64 43 92 bd ad 99 ef 3d a9 bb 22 bd
       0.008955856 -0.0714176 0.11699233 -0.039729748
0003e0 2b bf ba 3d 49 40 ae 3d ce 10 04 3e 4e 0d 66 bd
       0.09118494 0.08508355 0.12897035 -0.056165032
0003f0 40 66 cd 3d f2 46 46 bd 4a ab 68 3d 7e cc 02 3e
       0.10029268 -0.048407502 0.05680398 0.1277332

lstm.weight_hh_l0 f4 [256, 64]
000000 bd 59 d8 bd 3c 5b c1 bd e2 fb 03 bd 42 68 23 3d
       -0.10563991 -0.0944123 -0.032222636 0.03989435
000010 64 55 77 3b 71 d0 c4 bd 28 04 af 3d 36 06 e2 bc
       0.0037740106 -0.096100695 0.085457146 -0.027590852
000020 bc 98 04 3e ca ce f5 bd 55 fb 68 bc 5a 5e 4c 3d
       0.12948889 -0.120023325 -0.0142200785 0.04989467
000030 3c ff ef bc 7c 5c ae 3d 1f 1c 8c bd 70 8a 08 3e
       -0.02929651 0.08513734 -0.06841301 0.1333406
000040 1e 22 d6 bc f5 f0 10 3d 1e 0c bd 3c c0 b1 e1 bc
       -0.026139315 0.035386045 0.023077067 -0.027550578
000050 3a 81 e1 3d a8 2d 12 3e 22 28 07 be 71 08 1a 3e
       0.11010976 0.14275229 -0.13198903 0.15042283
000060 9f 56 08 bd 83 d5 70 bd 9d 5b 26 bd 34 89 14 3e
       -0.033285733 -0.05879737 -0.040614713 0.14505464
000070 fa 47 0c be a5 c0 74 bd 3f 7d 34 3d 79 ab 8b bc
       -0.13699332 -0.059754033 0.044064756 -0.017049538
000080 58 b5 03 ba dd 93 27 bd 96 e0 6b 3d 38 47 45 3d
       -0.0005024276 -0.040912498 0.05758723 0.048163623
000090 78 7c a6 bc 50 6e 99 bd 8c 83 3e 3d 25 19 35 3d
       -0.020323023 -0.074917436 0.04651217 0.044213433
0000a0 84 41 9a bd 0a b5 51 bd dc da c8 3d a8 5e ec bc
       -0.07532027 -0.051198043 0.09807369 -0.02885373
0000b0 8f 99 73 3c b9 cd e8 bd ca ee ca 3a 42 49 04 3d
       0.014868154 -0.113673635 0.0015482542 0.032296427
0000c0 8c 20 43 bc 8d 2d 0e 3e f5 ee 24 bd dc 26 00 3d
       -0.011909615 0.13884564 -0.04026695 0.03128706
0000d0 3b 1f 07 3d 8b 6d a1 3c 09 b8 55 bd ba be 2b 3d
       0.032988768 0.019705554 -0.052177463 0.041929938
0000e0 fa 10 13 3e d3 01 98 3d a6 17 4f 3d 5e e7 57 3d
       0.14361945 0.07422223 0.050559662 0.052710883
0000f0 e7 fc d9 39 18 9f 25 3d c8 71 74 3c 4a fb 47 3d
       0.00041577892 0.040434927 0.014919706 0.048823632
000100 15 84 85 3d 22 96 1f 3e 24 dd 66 3c d9 eb 8c 3c
       0.06519333 0.15584615 0.01409081 0.017202305
000110 4a 19 8f 3d c9 4d f6 bd 14 b6 41 3d e3 13 0c 3d
       0.069872454 -0.12026555 0.047292784 0.034198653
000120 bc ec e0 3d 8c 1a 89 bc 1c 4f ea bd b0 aa 00 3e
       0.109826535 -0.016736291 -0.1144087 0.12565112
000130 4a d2 4b bd c7 3b b5 3c dd 4a b1 3d aa bc d4 bd
       -0.049761094 0.02212323 0.08656857 -0.10387547
000140 e8 2c a6 bc 5d c9 16 3a 8e c4 56 3d 8b 0b ea bd
       -0.020285085 0.00057520514 0.052433543 -0.11427983
000150 29 9d bc 3d 3c 72 d6 3d 78 cf e2 3c f6 bc 12 3e
       0.092096634 0.10471007 0.02768682 0.14329895
000160 2d 1b aa 3b 97 3f 17 be b7 16 83 3d ea 82 c0 3c
       0.005191228 -0.14770351 0.06400817 0.023499925
000170 eb b6 a9 bc a2 d9 d9 bd df 58 95 bd b8 ca 49 bd
       -0.020717105 -0.10637213 -0.072923414 -0.049265593
000180 c3 c8 c8 3d 8b c9 6f 3d 6a 41 df 3d b1 04 90 3d
       0.09803917 0.058541816 0.109011486 0.07032145
000190 f3 37 b8 bd 3a 91 58 bd 8a 8f 90 bd f4 3d a2 bb
       -0.089950465 -0.052872874 -0.07058628 -0.004951233
0001a0 ce 6c a2 3d e1 2a 7b 3d 92 bd a0 3d ad f8 04 bd
       0.07930909 0.06132019 0.07848658 -0.03246372
0001b0 7e 46 a2 bd ad 8a 6c bd 38 92 e2 3d ee 97 09 3d
       -0.079236016 -0.05774944 0.11063045 0.033592157
0001c0 d5 6c 5f 3d af 8a ba 3b 74 97 23 be 5f c3 72 bd
       0.05454715 0.005692802 -0.15975744 -0.05926835
0001d0 4f 99 91 3c fb 39 6e bc 44 40 e1 3c 60 e2 31 3d
       0.017773299 -0.014540191 0.027496465 0.04342878
0001e0 9d 26 bd bc d2 57 91 3d c3 eb 87 bd 9a fd 10 bd
       -0.023089701 0.070968285 -0.06636765 -0.035398103
0001f0 ec 86 9d bd d4 c3 b3 bd f8 6e 92 3c 87 36 8e 3d
       -0.0769175 -0.087775856 0.01787518 0.06943994
000200 69 f7 cc bd 1b c0 ec 3d 82 fe ab bd 22 f7 ae bd
       -0.10008127 0.11560079 -0.08398153 -0.085432306
000210 9e ec f1 bd ab e9 ae bd cd 5d 75 bd 0f 8f 41 bd
       -0.11812709 -0.085406624 -0.05990391 -0.047255572
000220 f5 50 bf 3d d2 a0 15 be d8 f9 b3 bc 47 2c e1 3c
       0.09341613 -0.1461213 -0.02196972 0.027486933
000230 43 87 89 3d ab e5 b0 3d 37 5a b7 3d db cf b5 bd
       0.06715252 0.08637556 0.08952754 -0.08877536
000240 62 7f b2 bd 8d 47 1e 3c e3 29 a6 bd 27 55 87 3b
       -0.087157026 0.009660614 -0.08113458 0.004130024
000250 f3 f1 b6 3c d4 09 10 3e 40 63 75 3c c8 bb 9d 3c
       0.022332167 0.14066249 0.014977276 0.01925458
000260 ca e3 3e 3d 7d 22 17 3d d9 38 68 bd a4 59 ed 3d
       0.046603955 0.036898125 -0.05669484 0.11589363
000270 44 8c 0f be f2 6a 98 3d f4 7a fb bd b5 ea ad bd
       -0.14018351 0.07442273 -0.12279311 -0.084920324
000280 c5 eb 48 bd 16 b6 b4 3d a6 34 00 3e 0c ea 92 bb
       -0.049052972 0.08823793 0.12520084 -0.004483467
000290 3d 69 ea 3c be 96 b7 bc 25 a8 8e bc 81 40 0d 3d
       0.028614635 -0.022410747 -0.017414162 0.034485344
0002a0 80 3b 43 bd c2 5d 13 3e 8d 8a ea 3d 86 2f 90 bd
       -0.047664165 0.14391235 0.11452208 -0.070403144
0002b0 5c d8 09 3d 86 85 ec bd a8 4d 8d bc c1 de 10 be
       0.033653602 -0.11548905 -0.017248943 -0.14147474
0002c0 e4 84 85 3d ec 94 62 bd f7 63 a2 3d a1 13 d8 3d
       0.065194875 -0.055317804 0.07929223 0.10550619
0002d0 9f 62 08 be cf 99 ae bd 58 ce 5c bc ba 20 82 bd
       -0.13318871 -0.085254304 -0.013476931 -0.06353898
0002e0 8b 34 93 3d ea ab 6f bd 55 2f 67 3d 67 63 fd bd
       0.07187756 -0.05851356 0.056441624 -0.12372475
0002f0 a6 a1 86 bd d5 a3 5b bc c3 72 b9 3d a3 ba b4 bb
       -0.06573801 -0.01340576 0.09055092 -0.005515413
000300 36 8f 7f bd e4 a9 f3 bd 5d c8 a7 bb ee 03 d5 bd
       -0.062392436 -0.118976384 -0.0051203207 -0.1040114
000310 7f 3e 80 3d 1d ae be 3c e8 60 6f bc af 5c b2 bc
       0.0626192 0.023276383 -0.014610507 -0.02177271
000320 e6 14 2b bb a4 64 f3 bd 90 20 bd bd b4 2b 42 bd
       -0.0026104986 -0.1188443 -0.092347264 -0.04740496
000330 9b 76 01 3e 91 5a f8 bc 98 0f 82 3d 51 5e b5 bc
       0.126429 -0.030316623 0.063506305 -0.0221397
000340 05 2b a7 3c 96 f9 1c be 92 32 1e 3e 93 ba 1b 3e
       0.020406255 -0.15329584 0.15448979 0.15207891
000350 57 8d 84 3b 2b a9 c8 3d 5b 9f 1d 3e 6c bb ab 3d
       0.0040451693 0.09797891 0.1539282 0.08385357
000360 e7 f1 f4 3d 29 f0 ab bd 63 b3 0a be ce 46 96 bd
       0.11960202 -0.08395416 -0.13544993 -0.07337724
000370 49 7c 87 3c 3e b4 1c be 9c f6 2d bd 0d ff 1c bd
       0.016538756 -0.15303132 -0.042471513 -0.038329173
000380 52 bb a2 bd f9 5f 55 3d b1 1f 44 3d 97 f9 b5 bd
       -0.07945885 0.05209348 0.047881786 -0.08885496
000390 d8 32 9d 3d 85 10 29 bb c1 25 8d bb 64 82 4a 3d
       0.07675713 -0.00257972 -0.004307479 0.049440756
0003a0 e2 ee af 3d 75 0c 88 bb 4d da 61 bd 9b 2e 52 bc
       0.08590485 -0.0041518756 -0.05513983 -0.012828494
0003b0 0f b0 eb bc c8 e2 5b 3d 04 10 6b 3c 3a 1f b2 bc
       -0.028770475 0.053683072 0.01434708 -0.021743406
0003c0 bd 95 8e bd 2e 8f 27 be 3b 78 03 3c a0 7a 2c bb
       -0.06962154 -0.16363212 0.008024271 -0.0026318207
0003d0 8b 05 5c bc 0b 8f 10 be 91 b7 77 3d 41 37 fc bd
       -0.013429056 -0.14117067 0.060477797 -0.12315226
0003e0 de 46 e3 bd 98 f8 a9 bd e4 22 99 3c e5 78 26 3e
       -0.11097501 -0.082993686 0.018693395 0.16257055
0003f0 75 94 d1 3d 70 0b a1 bc 6e 8d 9b 3b 5d 0e c6 bb
       0.10233394 -0.019658774 0.0047470843 -0.0060441927

lstm.bias_ih_l0 f4 [256]
000000 2e e7 04 3e 2d a3 d8 3c 05 9b ec bc 6c 54 b0 3c
       0.12978813 0.026444996 -0.028882513 0.02152463
000010 72 68 5a bd 24 1d 95 3d 5f b4 65 bd d6 e1 95 3c
       -0.053322263 0.07280949 -0.05608022 0.018296164
000020 4a 3c 04 bc 06 a2 9f bb cf c7 98 bd 45 d6 4c bc
       -0.008071015 -0.0048716096 -0.074599855 -0.012502258
000030 65 d9 0f 3e 4f 06 84 3d 18 f8 d7 bc 59 fc 14 3d
       0.14047773 0.06446516 -0.026363418 0.03637347
000040 03 af 98 3d 09 8b b9 3d fb 9a c5 3d 58 fb 9c bd
       0.07455256 0.09059722 0.09648701 -0.076651275
000050 3a d0 2f bd b8 18 0d 3e 58 d2 48 3d 8f c0 15 bd
       -0.04292319 0.1377896 0.049028724 -0.03656059
000060 2b ef aa bd 04 0e 60 bd 82 8e b5 bd 93 32 41 bd
       -0.08346399 -0.054700866 -0.08865072 -0.047167372
000070 6f 58 18 3e 73 eb dd 3c f9 7a 05 3e 25 5c d7 bd
       0.14877485 0.02708981 0.13035192 -0.10515622
000080 b8 b1 b3 3d fa 25 a7 3d 3a dd 90 bd 11 da 46 3c
       0.087741315 0.0816154 -0.070734456 0.012136952
000090 3e d8 8c 3c 19 26 52 bd fa d4 af 3d 9a 36 c2 3d
       0.017192956 -0.051305864 0.08585544 0.09483071
0000a0 09 5e 98 bd 71 f0 a2 bc 57 ef 02 3e cc 0d e8 3c
       -0.07439811 -0.019890042 0.12786613 0.028326891
0000b0 32 d0 43 bd 41 b5 92 3d 95 d5 76 bd 5d 2f 36 3d
       -0.047805972 0.07163478 -0.06026228 0.044478763
0000c0 ec 32 df bc 48 3b b5 3d 7a ed cc bc 65 7d 4b bd
       -0.027245961 0.088491976 -0.025015581 -0.049680132
0000d0 dc 68 ef bc c3 c5 c9 3d 54 d6 92 bd b6 3c f5 3d
       -0.029224806 0.09852173 -0.07169786 0.1197447
0000e0 65 b8 81 3d e4 50 b5 bd 09 51 f3 3d a3 8b 0b 3e
       0.063339986 -0.08853319 0.118806906 0.13627486
0000f0 59 bc 20 bd 83 f9 9d 3b 09 33 f2 3c a0 5f d1 3c
       -0.039242122 0.004821004 0.029565351 0.025558293
000100 de 9b 05 3e ae af b8 bb eb a4 d5 bb c5 85 5a 3d
       0.1304774 -0.005636177 -0.006519904 0.05335023
000110 d1 fc b3 3d 57 0c 05 3e d2 77 f6 bd 49 b7 64 bc
       0.08788455 0.12992989 -0.12034573 -0.013959714
000120 ec c4 29 bd a4 a6 d1 bc 1e ae c1 bb ab 3f 34 bd
       -0.041447565 -0.025592156 -0.005910649 -0.04400603
000130 4e fe 3d bd f9 8d 95 bd da f7 95 bd a6 7b 82 3d
       -0.046385102 -0.0730247 -0.073226646 0.0637124
000140 a3 90 e8 3d f5 16 3a bd f7 6a 04 3e d4 f7 3c 3d
       0.11355712 -0.04543205 0.12931429 0.046134785
000150 d8 8f d5 bd e2 a7 c0 3d 13 15 3b 3d 5e e8 0a 3e
       -0.10427827 0.09407021 0.045674395 0.13565204
000160 e1 12 e6 bc 29 59 0c bd a5 1b fb 3d 2b 53 b3 bd
       -0.028085174 -0.034264717 0.12261132 -0.087560974
000170 8a e2 a8 3d 51 48 91 bd 92 fb 70 3c 77 7b 48 bb
       0.08246334 -0.070938714 0.014708417 -0.003059117
000180 82 c1 a7 bd 62 62 1b bd 5f 47 26 bc 2a 8a 0e 3c
       -0.081912056 -0.037935622 -0.010148852 0.008699933
000190 44 2f 00 3c ba 8e 3b bd 93 b3 0d 3e 91 d5 14 3d
       0.007823769 -0.04579041 0.13838033 0.036336485
0001a0 fa b2 44 3d 15 70 3d 3d a4 c7 20 bd 98 0d 06 3d
       0.048022248 0.046249468 -0.039252892 0.032727808
0001b0 35 fd a9 bd 8a 64 20 3e 0c 70 ff bb 63 f5 d7 bd
       -0.083002485 0.15663353 -0.0077953395 -0.10544851
0001c0 78 05 45 3d 17 4e 43 bd 07 73 86 bd 49 54 cb bd
       0.04810092 -0.047681894 -0.065649085 -0.099281855
0001d0 ed 33 49 3c 82 f2 8e 3d 5b 1f af bd 17 90 71 3c
       0.0122804465 0.069798484 -0.085509025 0.014743826
0001e0 88 78 ec bc b5 2a 52 bd cf a0 ba 3d 03 d3 fd 3d
       -0.028866068 -0.05131026 0.09112703 0.12393763
0001f0 1c 4e 52 3d 67 67 52 bd d4 58 14 3d f7 d3 8a bc
       0.051344022 -0.051368143 0.036217526 -0.016946776
000200 59 7e 04 3d 88 53 33 3d 08 0f 0a b9 b0 37 10 3e
       0.032347057 0.043780833 -0.00013166305 0.14083743
000210 1c 90 12 3e 1a fc af 3b 67 57 92 3c fa 41 45 bc
       0.14312786 0.005370629 0.017863942 -0.012039656
000220 18 7a 92 3d 45 4b 8e bc b6 92 0f be d5 28 0c be
       0.07152194 -0.017369876 -0.1402081 -0.13687451
000230 e5 b6 09 3d 33 0b 2e 3d b0 af fb 3d c8 ef ec 3d
       0.033621687 0.04249115 0.12289369 0.11569172
000240 df 2d a7 3d 31 4c a2 3d 99 7b df 3d 41 55 bf bd
       0.08163046 0.079246886 0.10912246 -0.09342433
000250 59 6e 1b 3e 8b 58 b4 bc 81 47 97 bd f5 f4 66 3d
       0.15178813 -0.022014877 -0.07386685 0.056385953
000260 d8 51 9f bd 26 24 59 3c d6 56 18 bd 6b 80 95 3d
       -0.07779282 0.013253247 -0.03719219 0.072998844
000270 35 d4 d3 bd df 3d 11 3d 52 b0 e0 3d 78 b4 3c 3d
       -0.1034321 0.035459395 0.109711304 0.046070546
000280 83 92 c6 3d 61 a3 2d bd 50 bc b0 3d 79 4b d2 bd
       0.09695914 -0.04239214 0.08629668 -0.102683015
000290 8a a6 08 bd 06 22 16 3c 98 35 2b 3d 29 aa 9f 3d
       -0.03336195 0.009163385 0.041799158 0.07796127
0002a0 fe 3d d2 bc aa d9 25 3e 3d 11 85 3d 05 d6 d7 39
       -0.025664326 0.16196314 0.064974286 0.00041167453
0002b0 47 16 8b bd cf bc 62 bd 29 36 e4 bd 6b 8b 93 3d
       -0.067913584 -0.055355843 -0.11143143 0.07204326
0002c0 ea 97 01 3e c5 9b 07 3d bc 23 de 3d 3f 65 02 3e
       0.12655607 0.033107538 0.108466595 0.12733935
0002d0 0e 4e c4 3c 78 c6 bb bc 7d 20 9e bb 60 17 10 be
       0.023963 -0.022921786 -0.0048256502 -0.14071417
0002e0 95 ab 9c bd 42 12 33 3c 79 b6 83 bd 38 7c 83 bd
       -0.07649914 0.010929646 -0.06431288 -0.06420177
0002f0 3f 16 1c 3d da a4 87 bd 54 7e f5 bd b1 59 e1 bd
       0.038107153 -0.0662324 -0.11986986 -0.110034354
000300 9f f9 ca 3d ca 0c 4c 3d d5 7f 90 bd 2c 24 b2 bd
       0.09910893 0.049816884 -0.07055632 -0.086983055
000310 89 17 a7 3d af 32 1e 3e b1 35 4a 3d d8 e1 be 3d
       0.08158786 0.15449022 0.04936761 0.0932042
000320 4a 96 0f 3c a6 6b aa 3d e2 f4 d6 3d b3 9b 01 bd
       0.008763859 0.083213136 0.104959264 -0.031642627
000330 d2 eb c7 3d 55 a6 21 bd 5c a4 73 3d a0 0a c7 bd
       0.09761776 -0.039465267 0.059482917 -0.097188234
000340 59 ab 82 bc 9f 0d 58 bd fc e8 e9 bc 2c 4e ee 3d
       -0.015950846 -0.052747365 -0.028553478 0.11636004
000350 53 02 9d bd bf 1e a0 3d 4c 5c 00 3d 98 d0 63 3d
       -0.07666459 0.07818364 0.03133802 0.055618852
000360 10 7d 94 bd 56 f4 4b bd 5e d0 93 bd 9e 0a 6c 3d
       -0.07250416 -0.049793564 -0.07217477 0.057627313
000370 f1 55 98 bd 82 c7 96 bd 3c a6 2d 3e 26 02 91 3d
       -0.07438267 -0.07362272 0.16957945 0.07080488
000380 a5 af 8d 3c 43 3a 83 bc 5a 89 21 3e ab 27 dc 3c
       0.017295668 -0.016018992 0.15775052 0.026874384
000390 4b 0d f6 bd 29 a7 0e 3e 8e ee 23 3e 47 a9 44 3d
       -0.12014254 0.13930954 0.1600897 0.048012998
0003a0 d3 2c 00 3e 30 4e 9e bd 08 ab 5a 3d 92 c7 28 3e
       0.12517099 -0.07729757 0.053385764 0.1648238
0003b0 a0 18 b0 bd f8 ec 98 bd bc 3f 7b 3d 40 f0 32 3d
       -0.08598447 -0.07467073 0.06134008 0.04368615
0003c0 91 78 9f 3d 30 99 54 3c e7 01 1c 3e 77 79 a3 3d
       0.07786668 0.012975976 0.152351 0.07982152
0003d0 29 06 ad bd db c1 af bd dc 92 1c 3e e6 74 2d bc
       -0.084484406 -0.08581897 0.15290397 -0.010586953
0003e0 13 2f bc 3c 96 3e 4b 3d 71 45 99 3d ed 31 67 bc
       0.022971665 0.049620233 0.07483948 -0.014111024
0003f0 39 20 1a bd 28 34 c7 bd 9e 05 4a 3d 54 5b 0d 3d
       -0.037628386 -0.09726745 0.049321763 0.034510925

lstm.bias_hh_l0 f4 [256]
000000 f5 68 fd bc 15 96 91 bd f3 47 dd 3d 55 a0 74 3c
       -0.030933836 -0.07108704 0.10804739 0.014930804
000010 62 16 c5 bd 8b ea 12 3d 15 00 f7 bc 87 bf 8b b9
       -0.0962341 0.03586821 -0.030151406 -0.00026654845
000020 00 a6 3d 3d 33 6b 91 3d 42 83 ac bd 36 38 43 3d
       0.046300888 0.07100525 -0.08423473 0.04766103
000030 d5 50 ce 3d fc 02 10 bd 08 99 f9 3d 28 61 13 3e
       0.10074011 -0.035159096 0.121873915 0.14392531
000040 f9 c6 9f 3d 6e f2 08 3e 3f d0 83 3d 24 75 bb bd
       0.07801623 0.1337373 0.06436204 -0.09153202
000050 61 c7 84 3d 48 ff 93 bc 08 ae 5a bd 33 d5 a3 bd
       0.06483341 -0.018066064 -0.053388625 -0.07999649
000060 c1 03 1f bc c2 20 f4 3d 7f 0a 64 bc 71 3e 68 3d
       -0.009705485 0.119203106 -0.013918518 0.056700174
000070 70 bf 85 3d b7 78 f4 3d 61 32 1c 3e e7 18 9d 3d
       0.065306544 0.11937087 0.15253593 0.07670765
000080 8e 53 80 bc af 1c f5 3c 29 c1 96 bd 6a 31 5f bd
       -0.015664842 0.029920904 -0.07361061 -0.054490484
000090 46 a0 aa bd 20 96 f8 3d 31 30 73 3d df eb b1 3c
       -0.08331351 0.12138009 0.05937213 0.021718917
0000a0 61 19 f9 3d 18 2b 89 3c 8f b5 0a 3e 34 c2 20 3e
       0.12163044 0.016744182 0.13545822 0.15699083
0000b0 b4 0a 9c bd bf ff 0e 3e 15 c9 fa 3d f7 47 3a bc
       -0.07619229 0.13964747 0.122453846 -0.011369697
0000c0 58 26 a9 3d c8 7e 27 bd 56 9d f7 3a 21 e5 aa bd
       0.082592666 -0.040892392 0.0018891494 -0.08344484
0000d0 c9 12 6e bd 51 82 4b 3c c8 3b a7 bd 40 7b a9 3c
       -0.058123384 0.012421207 -0.08165699 0.020688653
0000e0 0c e3 9f 3d 11 ff 9e bd c1 33 d2 bb b1 2c 47 3d
       0.07806978 -0.07763494 -0.006414861 0.048626605
0000f0 29 71 72 bc 11 3e a0 3b d6 d2 ee bd 00 b3 9c 3d
       -0.014797487 0.0048902114 -0.116613075 0.07651329
000100 ad 3c 20 3e c1 15 0a 3d 30 ee 21 3e d5 57 bb bd
       0.15648146 0.033712152 0.15813518 -0.09147612
000110 bb ac 34 bd 4f 28 d9 bb ef 05 e3 3d 7a 7d c7 bd
       -0.04411004 -0.0066271196 0.11085116 -0.0974073
000120 53 c7 12 bc ff f9 bb bd 27 b8 55 3d 58 55 a8 bd
       -0.008958655 -0.09178542 0.052177574 -0.08219403
000130 c6 15 9a bd 24 72 aa bd ae 84 15 bd b3 49 bf 3d
       -0.07523684 -0.08322552 -0.036503486 0.09340229
000140 f5 a5 85 3d 8c 24 cf bd 9b aa 04 3e 9f 32 11 bb
       0.065257944 -0.10114393 0.12955706 -0.0022155417
000150 29 23 dd 3c 6a ca f4 bc f0 4b c7 bc b1 5c 83 bd
       0.026994305 -0.029881675 -0.024328202 -0.06414164
000160 e4 48 ec bd ed 5a 43 bd 5b 5b c1 3d 03 e6 a5 bc
       -0.1153734 -0.047694135 0.09441253 -0.02025128
000170 1c f4 9d bd 4d 7e 94 3d e3 25 41 3c f4 f3 a3 bd
       -0.07712576 0.072506525 0.011788818 -0.08005515
000180 2e 23 0c 3e 66 7a ae bd 9d 4b a7 bd 76 c7 c8 3d
       0.13685295 -0.085194394 -0.08168719 0.09803669
000190 91 9b 53 3d aa 7b de bb 32 48 ff 3d 1d 8d 80 bd
       0.05166203 -0.0067896442 0.12464942 -0.06276915
0001a0 5e 24 d6 bc c4 35 3f 39 41 ae 0f bb b3 84 ec 3d
       -0.026140388 0.00018235209 -0.0021923932 0.11548748
0001b0 4a c8 b5 bd 81 00 0c 3e 88 96 e2 3d cd 66 6f bd
       -0.08876093 0.13672067 0.11063868 -0.058447648
0001c0 fa 01 ec bc b7 8d 81 3d 62 01 03 3d e6 2e fa bd
       -0.028809536 0.06325858 0.03198374 -0.122159764
0001d0 15 31 08 3e d4 00 fe 3d 3c cc 0e 3e a5 e7 bd 3d
       0.13299973 0.12402502 0.13945097 0.09272698
0001e0 e2 ad b2 bd fe 48 80 bd 80 db 5a bc 3b 9d 91 3d
       -0.08724572 -0.06263922 -0.013357997 0.071100675
0001f0 56 36 d4 3d 19 aa 1a bc ee a4 00 be 3a 11 25 bd
       0.10361926 -0.0094399685 -0.12562916 -0.04029963
000200 94 19 a1 bc 4c ed e2 bd e7 89 b5 3d 5d 1b d5 3c
       -0.019665517 -0.11080417 0.088641934 0.026014024
000210 f4 f0 8e bd bd b8 d9 bd 2c d4 7b bd f4 b9 8c bd
       -0.06979552 -0.10630939 -0.06148164 -0.06871405
000220 da e4 89 3d 7d ac d0 bd 36 24 11 be f1 2e ae bc
       0.06733103 -0.101891495 -0.1417397 -0.021262618
000230 ca e2 ce 3c 9d 80 bd bd 6d 27 a1 3d 30 e5 19 3d
       0.025254626 -0.09253047 0.07868848 0.037572086
000240 8a 87 6e 3d 6c 6c 2a 3d 49 b4 3c bd 05 2b e3 bd
       0.05823473 0.041607305 -0.04607037 -0.1109219
000250 41 35 e9 3d 6f 14 1b 3e 96 74 f8 3d 5e 96 da 3d
       0.113871105 0.15144514 0.12131612 0.106732115
000260 1f a0 f8 3d 70 88 20 3d 5e 42 1a be 80 7e 93 3d
       0.12139916 0.039192617 -0.1506438 0.07201862
000270 04 bd 02 be 09 53 15 be 1c 86 85 3d 18 0a 02 bd
       -0.12767416 -0.14582457 0.0651972 -0.031747907
000280 5c a4 54 bd 0e 95 16 3e fa 59 95 3d 8b ee c2 3c
       -0.051914558 0.14705297 0.07292552 0.023795387
000290 fc 40 d7 bc f1 cb a2 3d f2 54 26 3d 7e 8e 83 bd
       -0.026276104 0.07949055 0.040608354 -0.064236626
0002a0 ff 26 8b bd ff 2a 06 3e e3 b3 4c bd 5b 17 6c 3a
       -0.06794547 0.13102339 -0.04997624 0.0009006166
0002b0 72 73 84 3d 25 8c 48 bd be e3 02 3d 10 00 f1 bc
       0.06467332 -0.048961777 0.031955473 -0.029418975
0002c0 0b 06 ca 3d 24 a7 02 be 58 57 0f bd 73 f6 d4 bd
       0.09864434 -0.12759072 -0.034995407 -0.10398569
0002d0 ba 72 bc bd a4 ce 81 3d dd 2f f2 3d 78 4a fd 3c
       -0.0920157 0.06338242 0.118255354 0.030919299
0002e0 b4 8d 8b 3d 7c dd d1 3d e8 7b cc 3d 3e b1 c3 3d
       0.06814137 0.10247323 0.09984571 0.09555291
0002f0 f8 ca 33 bd 21 44 cb 3d 7a 08 89 3d b7 2a 7e 3c
       -0.043894738 0.09925104 0.0669107 0.015513114
000300 32 ae eb 3c c4 3b 11 3e 38 95 23 3d 6f 1e d2 bd
       0.028769586 0.14182955 0.039937228 -0.10259711
000310 82 8f 79 bc 16 87 0c 3d b1 1a 86 3d d2 eb 82 3d
       -0.015231969 0.034308515 0.0654806 0.063926354
000320 94 f0 13 3d b0 f6 0b 3e 44 92 fc 3d 12 7f 11 bd
       0.036118105 0.13668323 0.123325855 -0.035521574
000330 64 cc 35 bc 54 b8 8f bc ef 19 02 3c f6 1d 99 bd
       -0.011096094 -0.01754395 0.007940753 -0.07476418
000340 24 d8 95 3c 15 fc eb 3d 64 da ca bd c3 5c a3 3c
       0.01829154 0.1152269 -0.09904936 0.019941693
000350 34 76 24 3c 9e 24 ac 3b fe 70 b8 39 11 e9 da bc
       0.010037947 0.0052533885 0.000351794 -0.026722463
000360 64 56 05 be 42 8a b8 bd 20 36 c4 3d dc 0f 33 3d
       -0.13021237 -0.090107456 0.09580636 0.043716297
000370 a1 25 0f 3d da 44 b2 3c 8f a5 77 bd 82 a7 ff ba
       0.034947995 0.021761347 -0.060460623 -0.0019504877
000380 dd 99 9e bd f1 6f d4 3d 63 11 58 3b 56 e1 26 bc
       -0.07744191 0.10372914 0.0032969348 -0.01018556
000390 9f 68 e5 3c 9f be 11 bd d9 de 19 bd 22 7a 34 bd
       0.028003989 -0.03558218 -0.03756604 -0.044061787
0003a0 38 e2 ea 3b 9a b2 65 bd 45 c7 98 bd 3f 13 c9 3d
       0.0071680807 -0.05607853 -0.07459883 0.09818124
0003b0 98 c5 d6 3d 2b 51 01 bc ad dc 3b bd f9 46 c2 3d
       0.10486907 -0.007892887 -0.04586475 0.09486193
0003c0 9c 16 f1 bc b0 76 45 bd 56 8f 84 bd 26 8f a6 3c
       -0.029429726 -0.048208892 -0.06472652 0.02033193
0003d0 57 c5 89 3d a1 59 1b 3e b3 5b 13 bb aa e5 1a bd
       0.06727093 0.1517091 -0.0022485077 -0.03781668
0003e0 8f ed f7 3d ff 1f bb 3d 74 1b 84 bd d6 a2 88 bd
       0.121058576 0.09136962 -0.06450549 -0.066716835
0003f0 c6 ac c0 3d 5c c5 80 bd d8 f7 9f 3c aa fa 2c 3d
       0.09407954 -0.06287643 0.01952736 0.04223124

classifier.weight f4 [2, 64]
000000 99 47 8b 3c e9 8f 3b 3d fd 01 d1 3d 81 fa 7c 3d
       0.017001914 0.04579154 0.10205457 0.061762337
000010 1a 9d 1a bd e0 af cb bd 5c 72 b7 3d 8a f5 cb 3d
       -0.03774748 -0.09945655 0.08957359 0.09958942
000020 71 07 94 3c 69 7d 2c be 38 f4 f2 bd 53 ed 8b 3d
       0.018069955 -0.16844715 -0.11862987 0.068323754
000030 22 94 17 3e 12 c1 71 3d fe 8d 49 bd e2 06 d0 bc
       0.14802602 0.059022017 -0.04920768 -0.025393907
000040 00 2e d2 3d ff 66 db bd eb 17 37 3d c4 ae a9 3d
       0.1026268 -0.10713004 0.044700544 0.08285287
000050 c7 14 4e 3d 54 a5 ed 3d f1 0e 8a 3d 7b 0c 0d 3e
       0.050312784 0.116037995 0.06741131 0.13774292
000060 19 01 b2 bd 8e c9 73 3b 6e b9 c0 bd 0e f8 fa 3d
       -0.086916156 0.0037198993 -0.09410368 0.12254344
000070 aa a7 14 be 62 ca 02 3d bf 9e 52 bc 90 ba cb 3b
       -0.14517084 0.03193129 -0.012855231 0.0062173083
000080 ed 88 0f 3e f7 e2 3e 3e a1 35 ce 3d 6e 35 ac bd
       0.14017077 0.18641268 0.10068823 -0.084086284
000090 d6 6b 7c 3d 61 18 65 3d bd 8e 0c 3e da 95 66 ba
       0.061626278 0.055931453 0.13726325 -0.00087961333
0000a0 58 80 5b bd 7c db 1e 3e c6 53 f5 3d f8 4c 30 3e
       -0.053589195 0.15513414 0.11978869 0.17216861
0000b0 12 13 8d 3d 5b e3 fb bc 29 39 ed bd 43 fc 61 bb
       0.06888403 -0.03074806 -0.11583168 -0.0034482635
0000c0 f2 7e 18 3d 38 98 cc bd e4 8a 92 3d af be cb 3d
       0.03723044 -0.09989971 0.071553975 0.099484794
0000d0 99 fc 09 3e d5 83 f5 bc 89 a6 f5 3d 8d dd 06 be
       0.13475265 -0.029970089 0.11994655 -0.13170452
0000e0 d2 2f d9 3c bc 3a f5 3d d1 c2 be 3d ca 27 7d 3d
       0.02651206 0.11974093 0.09314502 0.061805524
0000f0 34 30 1f 3e 1d d3 d7 bd fc 0a 6c 3c 00 92 ad bd
       0.15545732 -0.105383135 0.014406916 -0.08475113
000100 a3 36 2f be e6 22 06 3e c1 41 b0 bd 1b eb 55 bd
       -0.17110686 0.1309925 -0.086062916 -0.052226167
000110 9f dd e7 bd df 5f 6a 3c 0d 47 4e bd 3c 4e 1d be
       -0.11321568 0.014305084 -0.050360728 -0.15361875
000120 16 64 65 3d 16 9b 7e 3d 1d 50 c8 3d e7 87 37 3e
       0.056003653 0.06215962 0.097809054 0.17922936
000130 e3 69 98 bd 41 b5 8b bd ad e8 d6 bd 77 be 72 bd
       -0.07442071 -0.06821681 -0.10493598 -0.059263673
000140 0d 69 a7 bd aa 75 40 3d 54 79 4e bd 91 91 da 3b
       -0.08174334 0.046987213 -0.050408676 0.006670185
000150 0e 95 84 bd 1f 12 26 be 20 66 62 bd e6 96 e0 bc
       -0.064737424 -0.1621785 -0.055273175 -0.027415704
000160 b2 c6 c2 bd b2 11 e7 bd 94 51 09 3d ee 18 25 be
       -0.095105544 -0.11282672 0.033525065 -0.16122791
000170 b1 33 28 3e d4 e9 19 3e 31 6f 1a be 51 00 27 be
       0.16425969 0.15030605 -0.15081479 -0.16308714
000180 20 87 7a 3d 1c bf 22 3d e0 a9 33 be c0 c7 ab 3d
       0.06116402 0.039733037 -0.17545271 0.08387709
000190 a1 72 57 bd 31 b0 1d be 2a 76 18 be f6 03 63 3d
       -0.052599553 -0.15399243 -0.14888826 0.0554237
0001a0 17 4b 2a 3e 5d c6 ac 3c c6 28 33 be 9f b7 4e 3c
       0.16630207 0.02109068 -0.17496023 0.012617021
0001b0 55 84 26 3e 6e 8f 12 3e 50 fa 30 3e 24 db e3 bd
       0.16261418 0.14312527 0.17282987 -0.11125782
0001c0 2e 42 f7 bd 85 a6 03 3e 93 be 20 be a1 35 5a bc
       -0.1207317 0.12856491 -0.15697698 -0.01331845
0001d0 fd d0 18 3d d0 1e d2 3d ca 12 b5 bd ae 96 e3 3d
       0.03730868 0.10259783 -0.08841474 0.11112724
0001e0 04 27 0e bd 54 b6 96 bd 0d 3a 79 bc bd 30 f6 bd
       -0.034705177 -0.07358995 -0.015211594 -0.12021015
0001f0 b5 fd 04 3d f9 e4 6e 3d 37 3b 07 3e 3c e5 19 3e
       0.032468516 0.058323834 0.13206182 0.15028852

classifier.bias f4 [2]
000000 a2 d5 38 3d 73 a3 9a bd
       0.04512561 -0.07550707
