best_model.pt (torch, 79672 bytes, 7 tensors)

sensor_embedding.weight f4 [1, 4]
0.3493149 0.17435706 0.25988334 0.2651062
00000000: 67d9 b23e a88a 323e 6e0f 853e 00bc 873e

lstm.weight_ih_l0 f4 [256, 8]
0.12715779 -0.07474128 0.08235304 -0.0029479405 0.1317223 0.05643176 0.09972814 0.02179098
0.115137234 0.03725122 -0.016544113 0.07359958 -0.024714585 0.018138763 -0.0179078 0.115770146
-0.14226271 -0.10121913 -0.02897036 -0.06888671 0.048356853 -0.08631914 0.1496842 -0.069392696
0.094763085 0.01905868 -0.0013044887 0.11669917 0.04587498 0.1275709 0.040082503 -0.013009929
0.07276092 0.005275342 0.09260903 0.15156186 0.11273164 -0.014221519 0.11265084 0.06284088
0.047702376 -0.09196764 -0.12573305 -0.050338756 -0.04713444 0.1516288 0.08492882 0.10066079
0.006995251 -0.034710906 0.061017178 -0.12536457 0.03444575 -0.058768693 0.06506787 -0.01653535
0.08238504 0.018040428 0.06868302 -0.10906323 -0.036432445 -0.036288444 0.15064967 0.07982386
0.097437754 -0.1260052 -0.1196938 -0.09350804 -0.039269216 0.095916465 0.0898078 0.14890483
-0.081949845 -0.102611765 0.04925238 -0.06752843 0.10060023 -0.004593137 0.09634828 -0.07227129
-0.10086208 0.0003278777 0.015562006 -0.043110494 0.12307102 0.13365036 -0.04206175 -0.018143062
0.106485166 -0.050152995 -0.07115834 -0.14767718 -0.031105725 0.07255678 0.024255415 -0.04989583
0.036038622 -0.052276615 -0.07498159 -0.037770227 -0.062588125 -0.030005591 0.17261758 0.07148606
0.0008690332 -0.1542332 -0.14710231 -0.10672941 0.065770775 -0.06286339 -0.0073021175 -0.028330252
0.037723172 -0.009137863 0.020604841 -0.055446554 -0.06655235 -0.053115387 -0.02344104 -0.07920612
0.08311851 -0.046497956 0.056226738 -0.012364347 -0.038839065 0.15573944 0.03357494 0.020017954
-0.08602063 -0.1065323 0.037804537 -0.02552747 0.031505637 -0.1198364 0.07570127 -0.1089126
-0.07018263 -0.022488344 0.014607616 0.05061962 0.122696474 -0.0898481 0.040489636 -0.044692464
-0.022365144 -0.10223097 0.09434667 -0.111284256 0.10873857 0.086064495 0.0826703 -0.025549948
0.08218393 -0.003963545 -0.024029963 -0.15028729 0.08506995 0.015899086 -0.024006024 0.14077944
0.019951265 -0.0770793 -0.043192282 0.014268496 0.09392884 -0.007649587 -0.047179658 -0.018657068
-0.056937695 0.081023656 0.11114951 -0.10343533 0.072478876 0.10798598 0.06615228 -0.0010592402
0.09723795 0.097681955 0.036778748 -0.031963624 0.010735921 0.05787107 0.022002582 0.0068854815
0.06252627 0.090048395 -0.029034622 -0.044661243 0.044877894 0.036259897 0.07337442 0.07839224
-0.14755856 -0.08015917 0.14663069 0.09002788 0.03676732 -0.032347575 -0.033446062 -0.06895407
-0.0019455643 0.08101006 0.12286538 0.100859195 -0.06986643 -0.034586195 0.02091773 0.16154484
0.0067729237 -0.04368186 0.019721936 -0.0795338 -0.034217346 0.13838342 -0.009923313 0.021809522
-0.14601026 0.06199602 0.10144339 0.052397512 -0.0502216 -0.08653241 -0.064585395 0.13011768
0.090774894 0.1359481 0.11406569 0.08014755 0.039310366 -0.05463275 -0.066559665 -0.07640642
0.052735616 -0.059808277 -0.06559656 -0.11231951 0.025055863 -0.03819459 -0.03316478 0.090141185
-0.028083105 0.08623258 -0.0014558258 -0.053157985 0.027934903 -0.010142288 0.011970935 -0.068786964
0.08048805 -0.07647866 0.06485117 0.058824826 0.11666715 -0.067076676 0.11764216 -0.03118659
00000000: a735 023e f511 99bd b6a8 a83d 3c32 41bb
00000010: 36e2 063e fd24 673d 443e cc3d ff82 b23c
00000020: 12cd eb3d bc94 183d 8587 87bc 60bb 963d
00000030: 3e76 cabc be97 943c 61b3 92bc e618 ed3d
00000040: 51ad 11be fa4b cfbd 4053 edbc 7a14 8dbd
00000050: d611 463d 17c8 b0bd d146 193e c21d 8ebd
00000060: 2613 c23d f320 9c3c 61fb aaba f9ff ee3d
00000070: 67e7 3b3d f2a1 023e 8d2d 243d 9927 55bc
00000080: ad03 953d c7dc ac3b cea9 bd3d 0833 1b3e
00000090: d9df e63d 6001 69bc 7cb5 e63d b8b2 803d
000000a0: 9163 433d 8859 bcbd 2ac0 00be 0330 4ebd
000000b0: 0b10 41bd 9544 1b3e 29ef ad3d 3f27 ce3d
000000c0: 6b38 e53b 062d 0ebd 26ed 793d 925f 00be
000000d0: fd16 0d3d 71b7 70bd 4e42 853d 2475 87bc
000000e0: 7db9 a83d 85c9 933c afa9 8c3d 8b5c dfbd
000000f0: 303a 15bd 31a3 14bd e843 1a3e b17a a33d
00000100: 728d c73d 8207 01be 0622 f5bd 2581 bfbd
00000110: c2d8 20bd da6f c43d 27ed b73d 827a 183e
00000120: 52d5 a7bd 1e26 d2bd ddbc 493d 584c 8abd
00000130: 7e07 ce3d 0782 96bb 3f52 c53d f802 94bd
00000140: c790 cebd 00e7 ab39 c9f7 7e3c a194 30bd
00000150: a90c fc3d a4db 083e f148 2cbd c2a0 94bc
00000160: e514 da3d 3a6d 4dbd 77bb 91bd b038 17be
00000170: 6fd1 febc a698 943d 4bb3 c63c 925f 4cbd
00000180: 3c9d 133d 0120 56bd f38f 99bd f4b4 1abd
00000190: 342e 80bd 49ce f5bc aac2 303e 4967 923d
000001a0: d5cf 633a 4fef 1dbe fda1 16be f394 dabd
000001b0: d4b2 863d 85be 80bd 9a46 efbb d814 e8bc
000001c0: 9d83 1a3d fab6 15bc 7ccb a83c ed1b 63bd
000001d0: 994c 88bd 858f 59bd 6d07 c0bc d136 a2bd
000001e0: 0a3a aa3d a474 3ebd 024e 663d d593 4abc
000001f0: b615 1fbd 297a 1f3e e085 093d b1fc a33c
00000200: 962b b0bd 9b2d dabd eed8 1a3d fc1e d1bc
00000210: 0e0c 013d c96c f5bd 4409 9b3d 920d dfbd
00000220: e9bb 8fbd 7a39 b8bc c854 6f3c 8556 4f3d
00000230: 4a48 fb3d 4802 b8bd 76d8 253d 720f 37bd
00000240: 1b37 b7bc 795e d1bd d438 c13d 00e9 e3bd
00000250: 54b2 de3d 9542 b03d 0c4f a93d 204e d1bc
00000260: 0c50 a83d a0e0 81bb 7cda c4bc e9e4 19be
00000270: 2739 ae3d cd3e 823c 48a8 c4bc 7c28 103e
00000280: d670 a33c c1db 9dbd 64ea 30bd 69c6 693c
00000290: c35d c03d 63a9 fabb 753f 41bd b5d6 98bc
000002a0: 8037 69bd bbef a53d 5ba2 e33d e7d5 d3bd
000002b0: ce6f 943d c127 dd3d d97a 873d 34d6 8aba
000002c0: b124 c73d 7a0d c83d 50a5 163d 4aec 02bd
000002d0: b7e5 2f3c 370a 6d3d c23e b43c 9b9f e13b
000002e0: c60d 803d 4b6b b83d 04da edbc b5ee 36bd
000002f0: e2d1 373d 4285 143d 5445 963d 1c8c a03d
00000300: 9719 17be 7e2a a4bd 5b26 163e 8a60 b83d
00000310: 5499 163d e47e 04bd bdfe 08bd cb37 8dbd
00000320: 4e02 ffba 9ae8 a53d d8a0 fb3d 448f ce3d
00000330: 2116 8fbd 41aa 0dbd a95b ab3c 036c 253e
00000340: 67ef dd3b c0eb 32bd e68f a13c 9ee2 a2bd
00000350: 7d27 0cbd 62b4 0d3e 6495 22bc e2a9 b23c
00000360: b783 15be 8aef 7d3d 8dc1 cf3d c69e 563d
00000370: 2ab5 4dbd e737 b1bd 5945 84bd 923d 053e
00000380: 30e8 b93d fb35 0b3e 469b e93d 6624 a43d
00000390: e803 213d 97c6 5fbd 6f50 88bd f87a 9cbd
000003a0: 4d01 583d 86f9 74bd 7d57 86bd c507 e6bd
000003b0: f441 cd3c ee71 1cbd cbd7 07bd f19b b83d
000003c0: 8a0e e6bc b59a b03d 68d1 beba 30bc 59bd
000003d0: bdd7 e43c d72b 26bc be21 443c 2ee0 8cbd
000003e0: ebd6 a43d d8a0 9cbd b1d0 843d 4df2 703d
000003f0: 30ef ee3d 7f5f 89bd 5fee f03d 057b ffbc

lstm.weight_hh_l0 f4 [256, 64]
0.024358995 0.026735513 -0.11799939 -0.12541178 0.028958116 -0.015445322 0.06533097 -0.07564276
0.060485672 -0.030874453 0.13451591 -0.077265546 0.018677536 -0.006389445 -0.029924426 0.06332175
-0.14861947 0.13986705 -0.010115807 0.050183784 0.07874677 -0.022912754 0.0949527 0.077392176
-0.11567544 0.123445176 0.0007566419 -0.005107072 -0.008297438 0.09491204 -0.099046245 -0.07330878
0.06628341 -0.099389575 0.078778446 0.0016224394 0.06609888 0.09834954 -0.09442026 -0.09516954
0.0236159 0.04351986 -0.033646997 -0.09160652 0.089530356 -0.0342792 -0.0028748577 -0.08191511
-0.058251183 0.0937877 0.0339063 0.11679302 0.017323567 -0.040422823 0.03609343 0.03469347
0.009278891 0.0396633 0.064870685 0.061497163 0.12027046 0.048635673 -0.017252099 0.07162299
0.019680081 -0.0080792755 0.094966464 0.089881085 0.06503136 0.012002719 0.10885364 -0.12155525
0.105076745 0.043192923 0.12087208 -0.031360686 -0.109265976 0.037985068 -0.04077797 0.0348162
0.071290135 -0.07072784 0.024730427 -0.019778859 0.07379677 -0.099956654 0.10321884 0.096388586
0.091198064 0.14618662 -0.00084846193 -0.13364336 0.06857816 0.02587055 -0.016488211 -0.14045112
-0.0023354664 -0.04668376 0.11568355 0.11008353 0.10971055 0.06338388 -0.06293278 -0.036023337
-0.034201406 -0.0315612 0.103828944 0.064905226 0.10581789 -0.0055731423 -0.105431154 -0.053312182
0.068827435 0.09198238 0.059628442 -0.057003677 -0.11618379 -0.047676235 0.042263396 -0.030444263
0.07571929 0.016534047 -0.03003225 0.09370248 -0.015190524 0.01249999 -0.08648947 -0.13455063
0.06547944 0.04643622 -0.08923365 0.08954835 -0.10343633 -0.16762303 -0.033418104 -0.004562522
-0.05279486 -0.07563726 0.11137804 -0.06266506 -0.014848895 -0.0631624 0.037244238 0.07056231
0.040228896 -0.006113045 -0.15149006 0.01998705 -0.043657225 0.06090787 -0.030944847 0.05856658
0.046710543 -0.02110864 0.05323341 0.06792348 -0.049563732 0.049281325 -0.105810285 0.1007257
-0.11283448 -0.060488008 0.026788672 0.12130896 0.11911884 0.06938169 -0.05969089 -0.033694252
-0.09781446 -0.004059142 -0.043871164 0.08477162 0.022629816 -0.14702106 0.05515808 -0.054090887
0.022677949 -0.12512873 0.027676413 -0.05187478 0.15474936 0.04474907 -0.049146157 -0.12591949
-0.014108306 -0.06803318 0.016574848 -0.050112322 0.02436266 -0.15547802 -0.11119672 -0.015888253
0.05213414 -0.025409516 -0.12775214 -0.109581 -0.03739797 -0.09654456 0.024175426 0.029717032
-0.025334872 -0.06638169 0.0348067 -0.10831571 -0.09617768 -0.04228357 0.12453449 -0.043055102
0.05517843 -0.014150405 -0.028098375 -0.1037607 0.082490504 0.10482549 0.018873531 0.09195197
0.13084735 0.09424901 0.06269821 -0.12992091 -0.14037083 -0.09647459 0.018755732 -0.12859309
-0.06994992 -0.040721215 -0.09819356 0.049015168 0.036659315 -0.09392604 0.07890306 -0.044537473
-0.038294584 0.11365143 0.09574816 0.015173412 -0.09761895 -0.06548748 0.03139399 0.060524527
0.05555641 -0.047997285 -0.100275345 -0.13364567 -0.016068967 0.0039953636 -0.069690935 -0.08431725
0.024404274 -0.12112803 -0.08345898 -0.077677846 -0.0007280416 0.108017914 0.009226227 -0.022290649
00000000: 848c c73c 6f04 db3c aaa9 f1bd f26b 00be
00000010: 9239 ed3c 600e 7dbc 3ecc 853d 97ea 9abd
00000020: d3bf 773d 6cec fcbc 8abe 093e 663d 9ebd
00000030: a201 993c 8d5e d1bb 1224 f5bc d5ae 813d
00000040: b42f 18be 4f39 0f3e c5bc 25bc 838d 4d3d
00000050: fd45 a13d 87b3 bbbc 9076 c23d ca7f 9e3d
00000060: 3fe7 ecbd d3d0 fc3d 6159 463a 3a59 a7bb
00000070: faf1 07bc 3e61 c23d c2d8 cabd ea22 96bd
00000080: 99bf 873d c38c cbbd 9856 a13d 08a8 d43a
00000090: d95e 873d 7c6b c93d 695f c1bd 3fe8 c2bd
000000a0: 2276 c13c e141 323d 6fd1 09bd 339c bbbd
000000b0: b15b b73d 5968 0cbd 1c68 3cbb 1cc3 a7bd
000000c0: cb98 6ebd c413 c03d 55e1 0a3d 2e31 ef3d
000000d0: 27ea 8d3c 6792 25bd b4d6 133d bd1a 0e3d
000000e0: 7d06 183c fc75 223d ecda 843d 73e4 7b3d
000000f0: 5c50 f63d 3336 473d 4654 8dbc 13af 923d
00000100: 1f38 a13c f05e 04bc c77d c23d 9313 b83d
00000110: 292f 853d 0da7 443c a8ee de3d f5f1 f8bd
00000120: 7a32 d73d 10eb 303d c88b f73d 1074 00bd
00000130: d7c6 dfbd 3b96 1b3d cd06 27bd 6f9b 0e3d
00000140: 9000 923d c2d9 90bd 7797 ca3c 4607 a2bc
00000150: c322 973d 13b6 ccbd 6664 d33d 6167 c53d
00000160: 0dc6 ba3d f2b1 153e 516b 5eba ced9 08be
00000170: b572 8c3d 7aee d33c 4912 87bc 6bd2 0fbe
00000180: a00e 19bb 7837 3fbd 7feb ec3d 7973 e13d
00000190: edaf e03d 68cf 813d e7e2 80bd 358d 13bd
000001a0: c616 0cbd 5146 01bd 45a4 d43d 08ed 843d
000001b0: 0db7 d83d e89e b6bb 4aec d7bd e05d 5abd
000001c0: 66f5 8c3d 4261 bc3d f43c 743d b07c 69bd
000001d0: c4f1 edbd 2848 43bd 621c 2d3d 3f66 f9bc
000001e0: b712 9b3d 6972 873c 3106 f6bc 16e7 bf3d
000001f0: ade1 78bc c2cc 4c3c 6421 b1bd a4c7 09be
00000200: 161a 863d e833 3e3d 22c0 b6bd 2065 b73d
00000210: 6dd6 d3bd 5fa5 2bbe 6ce1 08bd 3581 95bb
00000220: 6c3f 58bd b5e7 9abd 2b1a e43d 8a56 80bd
00000230: c848 73bc 4a5b 81bd 6a8d 183d f982 903d
00000240: 0ec7 243d f04f c8bb 3620 1bbe e2bb a33c
00000250: ebd1 32bd 887a 793d 0c80 fdbc 83e3 6f3d
00000260: 8e53 3f3d 07ec acbc 470b 5a3d 771b 8b3d
00000270: 5703 4bbd 37db 493d 10b3 d8bd 4749 ce3d
00000280: c415 e7bd 46c2 77bd eb73 db3c d570 f83d
00000290: 94f4 f33d fd17 8e3d 6f7e 74bd fc02 0abd
000002a0: f352 c8bd 8d02 85bb 40b2 33bd be9c ad3d
000002b0: 2a62 b93c b08c 16be 70ed 613d 688e 5dbd
000002c0: 1bc7 b93c bf21 00be a5b9 e23c a67a 54bd
000002d0: 9e76 1e3e cd4a 373d 7b4d 49bd 0af1 00be
000002e0: 8626 67bc fb54 8bbd fac7 873c 9442 4dbd
000002f0: 3394 c73c a135 1fbe 1bbb e3bd 1528 82bc
00000300: 9c8a 553d 9e27 d0bc 75d1 02be 016c e0bd
00000310: 9d2e 19bd 27b9 c5bd 8b0b c63c 2271 f33c
00000320: 148b cfbc 20f3 87bd 7891 0e3d a1d4 ddbd
00000330: cef8 c4bd 8931 2dbd f00b ff3d 8c5a 30bd
00000340: c702 623d 1ad7 67bc 902e e6bc 7d80 d4bd
00000350: c8f0 a83d bfae d63d aa9c 9a3c 5051 bc3d
00000360: d9fc 053e a005 c13d eb67 803d fd09 05be
00000370: 5fbd 0fbe 7894 c5bd 9fa5 993c e8ad 03be
00000380: e741 8fbd 4acb 26bd b519 c9bd 21c4 483d
00000390: 1428 163d 4c5c c0bd ed97 a13d ed6c 36bd
000003a0: c8da 1cbd 15c2 e83d 9c17 c43d e799 783c
000003b0: 72ec c7bd 4d1e 86bd fc96 003d 91e8 773d
000003c0: 1e8f 633d cd98 44bd 295d cdbd 69da 08be
000003d0: 11a3 83bc 8aeb 823b 1fba 8ebd 86ae acbd
000003e0: 79eb c73c f911 f8bd 8bec aabd 9015 9fbd
000003f0: 0bda 3eba 7f38 dd3d 9a29 173c e19a b6bc

lstm.bias_ih_l0 f4 [256]
0.11829308 0.0014605616 0.12441495 0.023096927 -0.028937668 0.07215352 -0.050272916 0.06817964
-0.015399461 0.03979304 0.025008693 0.008031447 -0.06171378 0.0037299497 0.123695105 0.13643196
-0.06950206 0.023391696 0.07313359 0.10889369 0.109453306 -0.025193345 0.014075363 0.14550821
0.0557678 -0.028555166 -0.01636995 -0.024966612 -0.077287585 -0.036425438 0.17389718 0.012262571
0.13479263 -0.1381382 0.09198092 0.057709895 -0.084471636 0.014505041 0.07617331 -0.060229722
0.100035064 0.0892514 -0.13471593 -0.0036381516 0.12527013 0.01752728 -0.06458907 0.06714188
-0.057820704 0.073541276 -0.031384118 0.09317655 -0.08095416 0.009465592 -0.02645455 0.09218138
-0.09377803 0.12297123 0.11923953 -0.041586827 0.109726734 0.12992246 -0.055300426 0.07308611
0.06689957 0.007193828 0.12499156 -0.009120167 -0.010017071 0.07762588 0.09437936 0.12982288
-0.08902294 -0.0068338374 -0.006743945 -0.0068383664 0.0012590258 -0.011410126 -0.057936516 -0.0064560557
-0.097135276 0.06887643 0.103725046 -0.029341834 0.13645723 0.07788965 -0.05490961 0.096951805
0.048108734 0.14429429 0.025641993 -0.02063404 0.13075441 -0.070286915 0.09092675 -0.08573184
0.01110038 -0.038392086 -0.0899726 -0.05368055 -0.028677685 0.019809118 0.06135556 -0.05321809
0.14198586 0.034642693 -0.0022306447 0.062486086 -0.048322383 0.022644404 -0.101518676 0.14676504
-0.0067725834 -0.08761939 0.041240655 -0.049675465 -0.10889751 -0.048876014 0.010272895 0.06457953
-0.107663125 0.0152156325 0.018530173 -0.018075446 0.07549714 0.116802864 0.04223381 0.008647057
-0.009445639 -0.10175709 0.03521082 0.026287436 0.021598151 0.17082667 0.069499664 -0.0016515236
0.044645377 0.016645463 0.0868506 -0.02650966 -0.15511264 -0.07784675 0.050550193 0.086355165
0.059556216 0.069340445 0.08417981 0.04614435 0.06735513 -0.1396772 0.16225845 -0.010660563
-0.03124219 0.065389134 -0.13354427 -0.03466311 -0.049287252 0.087683715 -0.12232968 0.03898578
0.13168809 0.00066663144 0.027612362 -0.08956502 0.099896096 -0.11997186 0.006165108 0.0236549
0.045040123 0.16545682 -0.009046222 0.1767432 0.0799579 0.014866745 -0.05733295 -0.050812747
-0.13353007 0.095862366 0.1523243 0.02969555 0.091620125 0.16768627 -0.0275218 0.029746346
0.006944226 -0.15130842 -0.03282901 0.03999555 -0.048241593 -0.034477517 0.04289213 -0.122795545
-0.056540914 -0.05774054 0.09971767 0.052334055 -0.074367285 -0.048169926 0.088554814 0.16241844
0.093796805 0.10747254 0.049667835 0.10204441 0.11658187 -0.007497695 0.081975915 0.047182802
0.034299973 -0.08897376 -0.017892564 -0.026265983 -0.017387927 0.15569212 -0.009721894 0.08551482
0.030587003 0.062096838 -0.0031729243 -0.025221173 -0.061260257 0.0701458 -0.071893215 -0.08338324
0.166343 0.029616613 0.022250885 -0.035014164 0.14124092 0.049055647 -0.052589513 0.12652461
0.17793857 0.039309997 0.07560747 -0.05706373 0.04892829 0.16288441 -0.096884154 -0.07622224
0.06184941 0.06699036 0.06974289 0.018314844 0.10782955 0.14452223 -0.083563864 -0.089348555
0.13296798 -0.008195049 0.0863573 0.09487941 0.060700133 -0.015004893 -0.052167345 -0.022430258
00000000: a443 f23d 5170 bf3a 44cd fe3d c435 bd3c
00000010: b00e edbc 3ac5 933d f9ea 4dbd c4a1 8b3d
00000020: 054e 7cbc 07fe 223d 08df cc3c 5596 033c
00000030: 97c7 7cbd 2c72 743b dc53 fd3d d2b4 0b3e
00000040: 1957 8ebd f19f bf3c 10c7 953d a803 df3d
00000050: 0e29 e03d 4662 cebc 5a9c 663c 1b00 153e
00000060: c76c 643d 86ec e9bc 461a 86bc c886 ccbc
00000070: f448 9ebd d732 15bd 1a12 323e f3e8 483c
00000080: 1407 0a3e 1a74 0dbe 7e60 bc3d 3661 6c3d
00000090: 77ff acbd 8da6 6d3c c100 9c3d 71b3 76bd
000000a0: 2fdf cc3d 70c9 b63d f9f2 09be 0e6e 6ebb
000000b0: d046 003e 5f95 8f3c 4647 84bd af81 893d
000000c0: 67d5 6cbd cf9c 963d a28c 00bd 59d3 be3d
000000d0: 4bcb a5bd 9215 1b3c 36b7 d8bc 97c9 bc3d
000000e0: b20e c0bd 57d8 fb3d db33 f43d f356 2abd
000000f0: 69b8 e03d 650a 053e b382 62bd 2cae 953d
00000100: a402 893d 34ba eb3b 93fb ff3d c16c 15bc
00000110: a41e 24bc 51fa 9e3d f749 c13d 4af0 043e
00000120: a951 b6bd 62ee dfbb 50fc dcbb 6014 e0bb
00000130: e505 a53a 8af1 3abc d74e 6dbd 528d d3bb
00000140: dcee c6bd 160f 8d3d cc6d d43d 495e f0bc
00000150: 72bb 0b3e 9c84 9f3d e6e8 60bd ab8e c63d
00000160: aa0d 453d e2c1 133e 280f d23c b808 a9bc
00000170: 7ce4 053e 96f2 8fbd ce37 ba3d 2d94 afbd
00000180: 5ede 353c 0541 1dbd 8e43 b8bd 23e0 5bbd
00000190: 77ed eabc bb46 a23c f84f 7b3d 36fb 59bd
000001a0: be64 113e 7fe5 0d3d 0230 12bb 69f1 7f3d
000001b0: b1ed 45bd c280 b93c 06e9 cfbd 9349 163e
000001c0: 8cec ddbb cb71 b3bd f6eb 283d 8078 4bbd
000001d0: a805 dfbd 3732 48bd a54f 283c 4642 843d
000001e0: 7c7e dcbd fd4a 793c 97cc 973c f512 94bc
000001f0: 3f9e 9a3d 5736 ef3d 5cfd 2c3d 63ac 0d3c
00000200: e2c1 1abc 0566 d0bd 3939 103d c058 d73c
00000210: 9bee b03c 30ed 2e3e d755 8e3d f077 d8ba
00000220: 12de 363d 115c 883c bade b13d c92a d9bc
00000230: d9d5 1ebe 1e6e 9fbd b80d 4f3d fada b03d
00000240: 38f1 733d 5d02 8e3d 7766 ac3d dc01 3d3d
00000250: 7df1 893d 8a07 0fbe 1427 263e a4a9 2ebc
00000260: 9fef ffbc bdea 853d d4bf 08be e8fa 0dbd
00000270: 6ee1 49bd 8593 b33d fc87 fabd 8eaf 1f3d
00000280: 3ed9 063e e1c0 2e3a 5233 e23c dd6d b7bd
00000290: 5396 cc3d ceb3 f5bd ad04 ca3b ecc7 c13c
000002a0: fe7b 383d 836d 293e 9b36 14bc 2bfc 343e
000002b0: f8c0 a33d a693 733c f5d5 6abd 0721 50bd
000002c0: 1bbc 08be 7d53 c43d e7fa 1b3e 1544 f33c
000002d0: 55a3 bb3d f3b5 2b3e 6675 e1bc 9cae f33c
000002e0: 648c e33b 98f0 1abe b677 06bd 60d2 233d
000002f0: fa98 45bd 4c38 0dbd a8af 2f3d 3b7c fbbd
00000300: 7297 67bd 5881 6cbd c738 cc3d 3c5c 563d
00000310: e04d 98bd d44d 45bd 3a5c b53d 0551 263e
00000320: 8a18 c03d 901a dc3d 8070 4b3d a9fc d03d
00000330: 7ac2 ee3d 39af f5bb fde2 a73d c142 413d
00000340: 217e 0c3d e037 b6bd 6d93 92bc c22b d7bc
00000350: 2071 8ebc c16d 1f3e 9448 1fbc 6522 af3d
00000360: 9891 fa3c 4159 7e3d d6f0 4fbb a29c cebc
00000370: 09ec 7abd 9aa8 8f3d c03c 93bd d5c4 aabd
00000380: d255 2a3e 8a9e f23c 7d47 b63c 036b 0fbd
00000390: 76a1 103e 93ee 483d 1a68 57bd ab8f 013e
000003a0: 8735 363e 8503 213d 17d8 9a3d a8bb 69bd
000003b0: 0869 483d 2ccb 263e 336b c6bd 681a 9cbd
000003c0: cf55 7d3d 3e32 893d 5cd5 8e3d 0309 963c
000003d0: bdd5 dc3d a3fd 133e 8823 abbd 60fc b6bd
000003e0: c228 083e 8744 06bc 19dc b03d 2350 c23d
000003f0: b4a0 783d 15d7 75bc 6dad 55bd a9bf b7bc

lstm.bias_hh_l0 f4 [256]
0.09100258 0.016990371 -0.036446325 -0.074546225 0.10802257 0.06554262 -0.093220145 0.031218097
0.010543472 0.021216583 0.07949184 0.0839427 -0.07135139 0.06390362 0.083943866 0.036755063
0.07888273 0.13117933 0.07659833 0.15206456 0.07729396 -0.040093664 0.12189272 -0.010379978
-0.0467293 -0.07202338 0.057460215 0.14946176 -0.0025062454 0.06747731 0.09038646 0.10461042
0.15698828 0.043812014 -0.0114649525 0.0060067098 -0.08734811 -0.052139036 -0.024372643 0.11248941
0.073548436 0.016089197 0.061482616 0.033007834 0.1328635 0.14620455 -0.09298636 0.13517532
0.12491037 0.017611986 0.07846666 -0.03623261 -0.054044146 -0.024312332 -0.055367365 0.005959346
-0.10373788 0.023902213 0.13398175 -0.030682513 -0.015586407 0.042259563 -0.030852392 0.07315537
-0.07962172 0.058158234 0.1510158 0.030273926 0.15465687 -0.067773096 -0.037720516 -0.0068865777
0.14229654 -0.0903218 0.0258398 -0.0730618 0.05936421 -0.049603205 -0.08679713 -0.016662378
-0.06038564 0.09866186 0.055414658 -0.085093245 0.13670021 0.02947333 0.07645551 -0.027014766
-0.021949949 -0.05559901 -0.061738078 -0.034099367 0.10253634 -0.0029548 -0.06873186 0.057827517
0.008179677 -0.115427084 0.12884356 -0.100945316 -0.1002233 0.109181024 0.10521091 -0.014211662
0.12825358 -0.0665576 -0.07644694 0.016403435 -0.011257953 0.10541011 -0.107279226 0.12684888
0.111668624 -0.040563174 -0.03567559 0.061287604 -0.0112486305 -0.07176498 0.13103212 0.11887062
0.11731185 0.0932088 -0.0399005 -0.029411193 -0.029031608 0.06396158 0.094515204 0.05060832
-0.17178623 -0.12511341 -0.016807262 -0.12832636 0.11037498 0.055966824 -0.14346081 -0.1133503
-0.03470856 -0.040033266 0.0826589 -0.11103598 -0.15664436 0.03777279 0.042182628 -0.04867643
0.015346563 -0.008793801 0.060783125 0.008501208 -0.08785657 -0.15717836 0.12433829 0.16280434
0.16396202 0.11573867 0.06567802 -0.008719465 -0.16274768 0.086703464 -0.14657313 -0.14231804
0.08716715 -0.077155285 -0.121271424 0.099891685 0.08652448 0.006515422 0.013251361 0.09398537
0.043849282 0.02324476 -0.051330537 0.14580104 -0.034995273 0.015355713 0.0752741 -0.04441836
0.009860884 -0.005615041 0.12441135 -0.13100728 -0.05184699 -0.0636577 -0.14351138 0.11605793
0.13002884 0.02033012 0.111824416 0.13154665 0.11593766 0.12528238 -0.03911478 0.042703506
0.13033201 0.06781188 0.029328363 0.14444432 0.03613943 -0.063821845 -0.008344205 0.042147618
0.10991825 0.07818213 0.07709307 0.1555433 0.13495302 -0.011377208 -0.026764559 0.06911472
-0.01727575 -0.066499054 0.01635594 0.1417968 -0.08793902 0.059136577 0.07702129 0.012577209
-0.00042249763 -0.020291196 -0.060926706 -0.06561866 0.10683011 0.056229547 0.03747295 0.012061653
-0.06375673 -0.043173503 -0.072504394 0.084750704 -0.013227478 0.011982985 0.09561054 -0.04839268
-0.01973468 -0.05284467 -0.042474296 -0.03583938 -0.07906651 0.09623754 0.094024606 -0.009436049
-0.045360845 0.11823972 -0.03756365 -0.042879242 -0.10928882 0.085010454 0.06824698 0.1484394
-0.022195302 -0.03542744 0.18452214 0.13664989 -0.0786946 -0.06761511 0.07955535 0.01198328
00000000: 905f ba3d 642f 8b3c be48 15bd b1ab 98bd
00000010: f03a dd3d 363b 863d 34ea bebd 18bd ff3c
00000020: 87be 2c3c 66ce ad3c 9ecc a23d 26ea ab3d
00000030: ad20 92bd e7df 823d c3ea ab3d 7a8c 163d
00000040: 458d a13d e053 063e 96df 9c3d d0b6 1b3e
00000050: 4c4c 9e3d 4139 24bd e4a2 f93d c910 2abc
00000060: 3967 3fbd fe80 93bd 675b 6b3d 810c 193e
00000070: d23f 24bb 8b31 8a3d 891c b93d fd3d d63d
00000080: 89c1 203e 3a74 333d 7fd7 3bbc efd3 c43b
00000090: 91e3 b2bd be8f 55bd 23a9 c7bc d960 e63d
000000a0: 90a0 963d 7ecd 833c 32d5 7b3d 3933 073d
000000b0: 5f0d 083e a5b6 153e a26f bebd 666b 0a3e
000000c0: 02d1 ff3d 0347 903c 21b3 a03d a568 14bd
000000d0: 655d 5dbd a82a c7bc e4c8 62bd 9e46 c33b
000000e0: 8774 d4bd 93ce c33c 8332 093e e559 fbbc
000000f0: 215e 7fbc 5d18 2d3d 28be fcbc 7cd2 953d
00000100: b610 a3bd 5437 6e3d e3a3 1a3e 0601 f83c
00000110: 5f5e 1e3e 9fcc 8abd d480 1abd cda8 e1bb
00000120: 2fb6 113e a3fa b8bd fdad d33c 6da1 95bd
00000130: e327 733d bb2c 4bbd b2c2 b1bd 8a7f 88bc
00000140: ef56 77bd 3b0f ca3d 7bfa 623d 5e45 aebd
00000150: 24fb 0b3e 0e72 f13c b594 9c3d 124e ddbc
00000160: 61d0 b3bc cabb 63bd 11e1 7cbd c7ab 0bbd
00000170: 93fe d13d 51a5 41bb 4ac3 8cbd 8cdc 6c3d
00000180: 0d04 063c 0965 ecbd 91ef 033e 6bbc cebd
00000190: e041 cdbd 4d9a df3d d178 d73d 08d8 68bc
000001a0: e854 033e 5a4f 88bd 3790 9cbd 7f60 863c
000001b0: 4773 38bc 41e1 d73d 36b5 dbbd ace4 013e
000001c0: 85b2 e43d 9225 26bd 9120 12bd b608 7b3d
000001d0: 2d4c 38bc 85f9 92bd 492d 063e 7172 f33d
000001e0: 3241 f03d 41e4 be3d b56e 23bd beef f0bc
000001f0: b2d3 edbc 4afe 823d 3091 c13d ab4a 4f3d
00000200: bbe8 2fbe bb1d 00be 62af 89bc fc67 03be
00000210: 470c e23d 783d 653d 64e7 12be 3424 e8bd
00000220: 902a 0ebd ecf9 23bd 1249 a93d d566 e3bd
00000230: 6167 20be a4b7 1a3d b1c7 2c3d f060 47bd
00000240: 2770 7b3c e013 10bc baf7 783d a748 0b3c
00000250: 25ee b3bd 5df3 20be 13a5 fe3d 2eb6 263e
00000260: a9e5 273e 6508 ed3d 3382 863d 16dc 0ebc
00000270: 54a7 26be 9691 b13d 4417 16be d2bb 11be
00000280: b184 b23d 9703 9ebd 275d f8bd 0394 cc3d
00000290: bf33 b13d 527f d53b 3d1c 593c 677b c03d
000002a0: 4e9b 333d cc6b be3c f83f 52bd de4c 153e
000002b0: 3457 0fbd 8796 7b3c 4f29 9a3d 07f0 35bd
000002c0: 8c8f 213c 61fe b7bb 61cb fe3d c626 06be
000002d0: 825d 54bd f85e 82bd a6f4 12be c8af ed3d
000002e0: 4826 053e 5a8b a63c 3304 e53d 2ab4 063e
000002f0: b970 ed3d 064a 003e d236 20bd dfe9 2e3d
00000300: c175 053e f4e0 8a3d 0942 f03c 36e9 133e
00000310: f006 143d 07b5 82bd 22b6 08bc fba2 2c3d
00000320: d21c e13d f41d a03d f9e2 9d3d be46 1f3e
00000330: 2031 0a3e 7867 3abc 5941 dbbc 058c 8d3d
00000340: e085 8dbc a830 88bd e4fc 853c 2e33 113e
00000350: 5f19 b4bd 3239 723d 57bd 9d3d a310 4e3c
00000360: ac82 ddb9 b939 a6bc 488e 79bd 1363 86bd
00000370: bfc9 da3d f450 663d 3c7d 193d 3d9e 453c
00000380: e392 82bd b3d6 30bd 2f7d 94bd c791 ad3d
00000390: 10b8 58bc 4854 443c 75cf c33d 6737 46bd
000003a0: a0aa a1bc a773 58bd 87f9 2dbd 50cc 12bd
000003b0: 9fed a1bd 3018 c53d f98f c03d a899 1abc
000003c0: 4bcc 39bd ab27 f23d 58dc 19bd 25a2 2fbd
000003d0: d1d2 dfbd f619 ae3d 13c5 8b3d 8000 183e
000003e0: ecd2 b5bc 5d1c 11bd 5ff3 3c3e f3ed 0b3e
000003f0: a22a a1bd ca79 8abd eaed a23d 8555 443c

classifier.weight f4 [2, 64]
-0.04435721 -0.07235749 0.023254406 0.037543375 0.11073388 0.109307855 -0.14000587 -0.10781576
0.12037901 0.1341283 -0.0067598624 -0.1789368 -0.12612097 0.19541982 0.15391433 0.15259954
-0.045223285 -0.114690505 0.10971204 -0.16353105 -0.08273011 -0.017480986 0.10507746 0.1265405
0.0690618 0.14635566 -0.19357191 -0.1295599 -0.10410886 0.13276738 -0.1668892 0.033238027
-0.01728983 -0.080307215 0.0219932 0.060428813 0.0985139 -0.09981801 0.15180881 0.06421563
0.14602076 0.10947142 0.0015872874 0.1721266 0.12824075 0.17943078 0.059334505 -0.0481163
-0.12749459 0.024596296 0.045390908 -0.1082539 0.030880101 0.19513254 0.007587507 0.09372784
0.12728022 -0.13948007 0.115711264 0.18237929 0.09907008 0.057664864 0.16185626 -0.18486573
0.13670793 0.03995078 -0.17736211 0.1392428 -0.094742104 -0.09977119 -0.010959068 0.022662757
-0.081165165 -0.18815939 0.08084161 0.07264669 0.1052998 0.052134965 -0.08030749 -0.16179486
-0.108926065 0.0300264 -0.0888284 0.103385925 0.07702188 0.1070077 -0.11950269 -0.17268151
-0.056923557 -0.036026023 0.011545366 0.020450233 0.04352915 -0.17145291 0.18597868 0.14900108
-0.14638175 -0.07656831 0.17934412 0.16571851 -0.17327899 0.0996088 -0.14278182 -0.16227737
-0.15764596 -0.05492656 0.11112831 0.0041030967 -0.18341284 0.0053558196 0.17216633 0.1604948
0.18449304 -0.1393058 -0.1288929 0.1369195 -0.11630408 -0.108964056 0.16447634 -0.021099424
-0.09574817 0.11890261 -0.1239047 -0.13622686 -0.021136137 -0.11606983 0.026070794 0.1378042
00000000: e8af 35bd 2a30 94bd 0680 be3c 15c7 193d
00000010: 72c8 e23d ccdc df3d b35d 0fbe 82ce dcbd
00000020: 4589 f63d ee58 093e d681 ddbb 353b 37be
00000030: db25 01be 221c 483e b89b 1d3e 0e43 1c3e
00000040: 0d3c 39bd dbe2 eabd b5b0 e03d af74 27be
00000050: 676e a9bd 4934 8fbc da32 d73d d593 013e
00000060: 4670 8d3d 42de 153e b737 46be 5aab 04be
00000070: 0737 d5bd 2cf4 073e 01e5 2abe 9924 083d
00000080: 67a3 8dbc 1c78 a4bd 152b b43c 3484 773d
00000090: a8c1 c93d 636d ccbd c573 1b3e 7c83 833d
000000a0: 7786 153e 8d32 e03d 870c d03a f541 303e
000000b0: 8b51 033e b4bc 373e bd08 733d 9915 45bd
000000c0: f18d 02be 2c7e c93c d1eb 393d 39b4 ddbd
000000d0: 44f8 fc3c d3d0 473e 9fa0 f83b 62f4 bf3d
000000e0: bf55 023e ddd3 0ebe 07fa ec3d a3c1 3a3e
000000f0: 41e5 ca3d fe31 6c3d a6bd 253e 714d 3dbe
00000100: 2afd 0b3e 6ea3 233d 6a9e 35be aa95 0e3e
00000110: 2608 c2bd d654 ccbd aa8d 33bc 3fa7 b93c
00000120: ec39 a6bd dbac 40be 4990 a53d cac7 943d
00000130: 6ca7 d73d 798b 553d 4178 a4bd 8dad 25be
00000140: a114 dfbd edf9 f53c aaeb b5bd 00bc d33d
00000150: a6bd 9d3d da26 db3d d4bd f4bd 6cd3 30be
00000160: ad28 69bd 0690 13bd c628 3d3c 3f87 a73c
00000170: 9f4b 323d 5a91 2fbe 3271 3e3e bd93 183e
00000180: 19e5 15be d9cf 9cbd fca5 373e 1db2 293e
00000190: 0c70 31be b3ff cb3d 6635 12be 0a2c 26be
000001a0: f16d 21be acfa 60bd 3d97 e33d 4573 863b
000001b0: 93d0 3bbe df7f af3b 5f4c 303e c058 243e
000001c0: beeb 3c3e 2ea6 0ebe 80fc 03be a034 0c3e
000001d0: d530 eebd 8c28 dfbd 7c6c 283e b3d8 acbc
000001e0: 9e17 c4bd 3683 f33d bfc1 fdbd 0e7f 0bbe
000001f0: b125 adbc 05b6 edbd 6b92 d53c 8b1c 0d3e

classifier.bias f4 [2]
0.12177281 0.043878336
00000000: 0664 f93d c5b9 333d
