best_model.pt (torch, 79672 bytes, 7 tensors)

sensor_embedding.weight f4 [1, 4]
0.34929672 0.17437705 0.2598776 0.2651098
00000000: 05d7 b23e e68f 323e ad0e 853e 79bc 873e

lstm.weight_ih_l0 f4 [256, 8]
0.12700695 -0.07464958 0.08221611 -0.0029534013 0.13150366 0.056242324 0.09950277 0.021745592
0.114954114 0.037200842 -0.01648301 0.07347427 -0.024626566 0.018123362 -0.01778909 0.115325406
-0.14200133 -0.101014204 -0.029160652 -0.0689371 0.048097838 -0.08452685 0.14823309 -0.06848003
0.0946538 0.019080952 -0.0013162375 0.116286315 0.045680944 0.12644671 0.03987249 -0.012903742
0.072716415 0.0052574677 0.09248339 0.1513891 0.11258409 -0.014196931 0.11245839 0.06272737
0.047542226 -0.09195831 -0.12559299 -0.050429102 -0.0469392 0.15118255 0.08483905 0.1005363
0.0070669935 -0.034623165 0.060939945 -0.12533778 0.03434606 -0.058633834 0.06488961 -0.016552342
0.0823504 0.018044727 0.06835077 -0.10914065 -0.036283355 -0.036052246 0.15037288 0.07972289
0.09736763 -0.12589738 -0.1197017 -0.09359494 -0.039120324 0.09556972 0.089619406 0.14854981
-0.08188112 -0.10253093 0.04907821 -0.06761092 0.100366674 -0.004459346 0.0960273 -0.071901806
-0.10061178 0.00035376937 0.015346825 -0.043003112 0.12240775 0.1319535 -0.04128449 -0.017607149
0.10645817 -0.050098468 -0.07115252 -0.14763199 -0.031099554 0.07238366 0.024200499 -0.049852233
0.035906218 -0.052261658 -0.074894585 -0.03771052 -0.06201248 -0.02923889 0.17136341 0.07111901
0.0006089628 -0.15385039 -0.1467674 -0.106460966 0.06537022 -0.06005303 -0.006550666 -0.02721061
0.037666306 -0.0091715045 0.02064815 -0.055234086 -0.066391684 -0.052813362 -0.0233431 -0.078944154
0.08284838 -0.046540573 0.05620287 -0.012322292 -0.038675293 0.15491122 0.033521414 0.020018222
-0.08575852 -0.10616107 0.036620244 -0.025810584 0.031106671 -0.11522452 0.07407721 -0.10624959
-0.070233226 -0.022660866 0.014371237 0.050272167 0.1217715 -0.08719466 0.04033922 -0.043612894
-0.0223623 -0.10217269 0.094049826 -0.11131021 0.10859492 0.0858204 0.08252191 -0.025479631
0.08199163 -0.004062081 -0.024110958 -0.15022156 0.084857404 0.016050193 -0.023625748 0.14010426
0.01984835 -0.07700357 -0.043339103 0.013882647 0.093492754 -0.0072871023 -0.046606243 -0.01832844
-0.05693717 0.080962665 0.11097544 -0.103202656 0.07235213 0.10769752 0.066009 -0.0011015027
0.097174525 0.09761949 0.03671774 -0.031934977 0.010746574 0.0577912 0.021998495 0.006899793
0.06247997 0.08998798 -0.029117722 -0.044718098 0.04483167 0.03618454 0.073269635 0.078282215
-0.1474974 -0.080119684 0.14642516 0.08984581 0.036707446 -0.03230231 -0.03342683 -0.06889096
-0.0019614361 0.08096525 0.122756034 0.10078892 -0.069831885 -0.034544654 0.020883687 0.16137658
0.006722384 -0.043686274 0.019477138 -0.079641394 -0.03408722 0.13787606 -0.00982566 0.021821044
-0.14592205 0.061962377 0.10110552 0.052102406 -0.050111413 -0.08617083 -0.06440258 0.12983043
0.090689555 0.1358406 0.11388559 0.08000116 0.03929114 -0.054412995 -0.06639582 -0.07622607
0.052548237 -0.059874855 -0.06553419 -0.112220824 0.025034392 -0.03801597 -0.033062667 0.08996041
-0.028001959 0.086257145 -0.0015164065 -0.053167235 0.02787382 -0.010157765 0.011920478 -0.068749584
0.0803875 -0.07606107 0.064308725 0.058316816 0.1157964 -0.06558615 0.11644739 -0.030673549
00000000: 1c0e 023e e1e1 98bd eb60 a83d da8d 41bb
00000010: e5a8 063e 5a5e 663d 1cc8 cb3d d023 b23c
00000020: 106d eb3d e95f 183d 6107 87bc ae79 963d
00000030: a7bd c9bc 7277 943c 6dba 91bc ba2f ec3d
00000040: cc68 11be 89e0 cebd 52e2 eebc e52e 8dbd
00000050: 3d02 453d 6a1c adbd 6aca 173e 423f 8cbd
00000060: dad9 c13d a84f 9c3c 9a85 acba 8527 ee3d
00000070: f11b 3b3d 3f7b 013e 5651 233d 376a 53bc
00000080: 58ec 943d d646 ac3b ee67 bd3d bf05 1b3e
00000090: 7d92 e63d 3f9a 68bc 9650 e63d 3577 803d
000000a0: a3bb 423d a354 bcbd 739b 00be bf8e 4ebd
000000b0: 5243 40bd 99cf 1a3e 19c0 ad3d fae5 cd3d
000000c0: 3d92 e73b 05d1 0dbd 2a9c 793d 8c58 00be
000000d0: 74ae 0c3d 082a 70bd d8e4 843d c798 87bc
000000e0: 54a7 a83d 89d2 933c 7dfb 8b3d 2285 dfbd
000000f0: db9d 14bd 85ab 13bd 59fb 193e c145 a33d
00000100: ae68 c73d 3eeb 00be 2a26 f5bd b4ae bfbd
00000110: a23c 20bd 0fba c33d 618a b73d 711d 183e
00000120: 4ab1 a7bd bcfb d1bd 3c06 493d 9877 8abd
00000130: 0b8d cd3d b51f 92bb f6a9 c43d 4141 93bd
00000140: 8d0d cebd 1f7a b939 4071 7b3c 0824 30bd
00000150: eab0 fa3d d11e 073e ed19 29bd de3c 90bc
00000160: be06 da3d 0d34 4dbd 6ab8 91bd d72c 17be
00000170: 7ec4 febc e23d 943d 2040 c63c db31 4cbd
00000180: 6612 133d 5210 56bd 5562 99bd 5976 1abd
00000190: cc00 7ebd 6686 efbc e479 2f3e d8a6 913d
000001a0: cda2 1f3a f58a 1dbe 314a 16be 3508 dabd
000001b0: d2e0 853d 2afa 75bd f8a6 d6bb c9e8 debc
000001c0: fc47 1a3d 1444 16bc 4f26 a93c 233d 62bd
000001d0: 5df8 87bd d352 58bd 073a bfbc 79ad a1bd
000001e0: 69ac a93d 54a1 3ebd fb34 663d 70e3 49bc
000001f0: fc69 1ebd 0ca1 1e3e c04d 093d 41fd a33c
00000200: 2aa2 afbd fa6a d9bd 1cff 153d b870 d3bc
00000210: 6bd3 fe3c d5fa ebbd cbb5 973d 6399 d9bd
00000220: 70d6 8fbd 48a3 b9bc 5675 6b3c 30ea 4d3d
00000230: 5663 f93d 1d93 b2bd bd3a 253d 6fa3 32bd
00000240: 2431 b7bc ea3f d1bd 329d c03d 9bf6 e3bd
00000250: 0367 de3d 9bc2 af3d 3f01 a93d a9ba d0bc
00000260: 3aeb a73d 351b 85bb 5884 c5bc aed3 19be
00000270: b8c9 ad3d b27b 833c c98a c1bc 7e77 0f3e
00000280: 0299 a23c 0cb4 9dbd 5884 31bd 0b74 633c
00000290: 2179 bf3d a5c8 eebb 30e6 3ebd 8625 96bc
000002a0: f336 69bd c1cf a53d 1747 e33d ea5b d3bd
000002b0: 5b2d 943d 8490 dc3d ba2f 873d 4c60 90ba
000002c0: 7003 c73d baec c73d 5765 163d 40ce 02bd
000002d0: 6612 303c 77b6 6c3d 3036 b43c a917 e23b
000002e0: ffea 7f3d 9e4b b83d 4a88 eebc 532a 37bd
000002f0: 6aa1 373d 3d36 143d 640e 963d 6d52 a03d
00000300: 8f09 17be ca15 a4bd 7af0 153e 1401 b83d
00000310: 8c5a 163d 6d4f 04bd 92ea 08bd b416 8dbd
00000320: 708b 00bb 1cd1 a53d 8467 fb3d 6c6a ce3d
00000330: 0504 8fbd b27e 0dbd 4414 ab3c e73f 253e
00000340: 7247 dc3b 61f0 32bd 858e 9f3c 071b a3bd
00000350: 0a9f 0bbd 622f 0d3e cefb 20bc 0cc2 b23c
00000360: 976c 15be 43cc 7d3d 6910 cf3d 5569 553d
00000370: a041 4dbd 557a b0bd 80e5 83bd 45f2 043e
00000380: 72bb b93d cc19 0b3e d93c e93d a6d7 a33d
00000390: bfef 203d 29e0 5ebd 88fa 87bd 6a1c 9cbd
000003a0: d23c 573d 563f 75bd ca36 86bd 08d4 e5bd
000003b0: ed14 cd3c a2b6 1bbd b86c 07bd 2a3d b83d
000003c0: 5d64 e5bc 96a7 b03d 29c2 c6ba e3c5 59bd
000003d0: a357 e43c c16c 26bc 1c4e 433c 95cc 8cbd
000003e0: 34a2 a43d e8c5 9bbd 4bb4 833d 9ddd 6e3d
000003f0: aa26 ed3d 0852 86bd f87b ee3d 1847 fbbc

lstm.weight_hh_l0 f4 [256, 64]
0.024161551 0.026648004 -0.11761151 -0.12475462 0.028941786 -0.015354567 0.06513252 -0.075611465
0.060322054 -0.030779615 0.1338916 -0.07690716 0.018646069 -0.006515946 -0.029858777 0.06276814
-0.14783427 0.13893801 -0.010072891 0.050038856 0.0785443 -0.022903068 0.09480711 0.07498833
-0.1153555 0.12312356 0.0007698351 -0.005063077 -0.008309774 0.094130896 -0.09885434 -0.072477385
0.066065066 -0.09777728 0.07851028 0.0016979721 0.06598112 0.09774489 -0.09418247 -0.09488785
0.023514232 0.04347872 -0.03348505 -0.08900596 0.08898315 -0.034164984 -0.0026926731 -0.08181549
-0.05814272 0.09360861 0.033911757 0.11620907 0.017168878 -0.04025581 0.035876323 0.0347443
0.009315906 0.03936159 0.064665355 0.06129376 0.11941792 0.04849772 -0.017242832 0.07131064
0.019064019 -0.008179311 0.09256442 0.086563334 0.064602576 0.012108481 0.10717542 -0.120411135
0.10290615 0.04222897 0.119267106 -0.0311689 -0.10849683 0.036114 -0.03996612 0.033288307
0.069813035 -0.06917274 0.024582973 -0.019190669 0.072295465 -0.099427 0.10271194 0.09527216
0.090295225 0.1449757 -0.0009349704 -0.1298582 0.067908205 0.025595207 -0.016502416 -0.13759391
-0.0022320794 -0.04434706 0.11348717 0.103059575 0.10854432 0.06270046 -0.0625623 -0.034976553
-0.03353695 -0.030891787 0.102454774 0.064638734 0.102730714 -0.0056001563 -0.10163308 -0.052775245
0.06768726 0.08838453 0.05941335 -0.05629222 -0.111310974 -0.047185715 0.041655373 -0.029700715
0.07501946 0.01605274 -0.029414244 0.09283178 -0.014819202 0.013665255 -0.084634915 -0.12645409
0.0649343 0.04606769 -0.088333584 0.08770371 -0.101324685 -0.16600212 -0.033086453 -0.0044184774
-0.05246089 -0.07507049 0.110029116 -0.06212198 -0.014691184 -0.06274547 0.03659892 0.069853604
0.03892524 -0.0059041125 -0.15037496 0.020094652 -0.04211469 0.060426697 -0.03061624 0.05810193
0.045749035 -0.020821383 0.052821655 0.06735234 -0.049087707 0.048877466 -0.0990257 0.09802754
-0.11187505 -0.059161585 0.026665568 0.12017298 0.117858075 0.06859735 -0.059381492 -0.0334271
-0.097033724 -0.003876574 -0.043341845 0.08398488 0.022466479 -0.14594096 0.054746475 -0.053433724
0.022503002 -0.12394849 0.027361019 -0.050909266 0.15242602 0.044226646 -0.04860523 -0.12346707
-0.013962705 -0.067416534 0.0162067 -0.049782258 0.023933535 -0.15457098 -0.110083096 -0.015208109
0.05100198 -0.02534527 -0.12606044 -0.10798151 -0.03682121 -0.09379436 0.024018425 0.028614955
-0.025223363 -0.065793015 0.03463096 -0.10710287 -0.095610365 -0.042157274 0.123558655 -0.04241657
0.053951245 -0.013455357 -0.027704855 -0.10207185 0.08125264 0.103688315 0.018950585 0.09058679
0.12986946 0.092804745 0.06168505 -0.12818795 -0.13924156 -0.09504724 0.018198352 -0.124698915
-0.0692507 -0.03841882 -0.095161885 0.048304312 0.036430784 -0.09202766 0.078094766 -0.04336304
-0.037947394 0.112682 0.09465294 0.015203171 -0.096809365 -0.06487116 0.030931396 0.058694117
0.054805398 -0.046816308 -0.09952516 -0.13091841 -0.0157851 0.0038649754 -0.06839606 -0.083100274
0.024318244 -0.11992416 -0.08265991 -0.07669371 -0.00015155446 0.10697564 0.00859495 -0.021779405
00000000: 72ee c53c ea4c da3c 4ede f0bd 5a7f ffbd
00000010: 5317 ed3c b991 7bbc 3364 853d 2fda 9abd
00000020: 4214 773d 8825 fcbc e11a 093e 8081 9dbd
00000030: a4bf 983c b783 d5bb 659a f4bc 958c 803d
00000040: de61 17be c445 0e3e c408 25bc 8bf5 4c3d
00000050: d5db a03d 379f bbbc 3b2a c23d 7b93 993d
00000060: 813f ecbd 3428 fc3d c2ce 493a 2be8 a5bb
00000070: b825 08bc b3c7 c03d 2574 cabd 066f 94bd
00000080: 1f4d 873d 743f c8bd ffc9 a03d 7d8e de3a
00000090: 1c21 873d 792e c83d bde2 c0bd 9054 c2bd
000000a0: eba0 c03c be16 323d 9f27 09bd c248 b6bd
000000b0: cc3c b63d 95f0 0bbd 8f77 30bb e18e a7bd
000000c0: 1027 6ebd dfb5 bf3d 0ee7 0a3d 05ff ed3d
000000d0: bfa5 8c3c 47e3 24bd 0df3 123d 0a50 0e3d
000000e0: bea1 183c 9e39 213d 456f 843d 2a0f 7b3d
000000f0: 6291 f43d 8ca5 463d d740 8dbc 500b 923d
00000100: 252c 9c3c 8402 06bc 6a92 bd3d 1e48 b13d
00000110: 5b4e 843d a662 463c c97e db3d 1d9a f6bd
00000120: 76c0 d23d 49f8 2c3d 5042 f43d ec55 ffbc
00000130: 9633 debd 46ec 133d 84b3 23bd 5259 083d
00000140: 23fa 8e3d 70aa 8dbd 3b62 c93c c035 9dbc
00000150: a50f 943d 62a0 cbbd a35a d23d 0d1e c33d
00000160: b4ec b83d 8374 143e cd18 75ba 8cf9 04be
00000170: 7513 8b3d 0aad d13c 1330 87bc 6be5 0cbe
00000180: 1448 12bb 43a5 35bd f66b e83d e610 d33d
00000190: 7c4c de3d 1969 803d aa20 80bd 9343 0fbd
000001a0: 0a5e 09bd c610 fdbc cfd3 d13d 5061 843d
000001b0: 7b64 d23d 8481 b7bb 0125 d0bd db2a 58bd
000001c0: 9e9f 8a3d f302 b53d 6a5b 733d ac92 66bd
000001d0: 02f7 e3bd cf45 41bd d39e 2a3d ea4e f3bc
000001e0: cda3 993d 0981 833c 24f6 f0bc 971e be3d
000001f0: 3dcc 72bc 3ce4 5f3c 1255 adbd 2e7d 01be
00000200: 46fc 843d 79b1 3c3d 3de8 b4bd 019e b33d
00000210: 5183 cfbd 76fc 29be a985 07bd e0c8 90bb
00000220: 3be1 56bd 8fbe 99bd f256 e13d 9e73 7ebd
00000230: 4bb3 70bc b280 80bd c0e8 153d 680f 8f3d
00000240: 1370 1f3d 4977 c1bb e5fb 19be 8a9d a43c
00000250: 7480 2cbd fc81 773d e9ce fabc 4afc 6d3d
00000260: 5763 3b3d 9b91 aabc 855b 583d 06f0 893d
00000270: 3110 49bd bd33 483d fccd cabd aac2 c83d
00000280: bf1e e5bd 6b53 72bd c071 da3c 401d f63d
00000290: 935f f13d c47c 8c3d 023a 73bd dbea 08bd
000002a0: 9eb9 c6bd 1f0e 7ebb 3887 31bd 4400 ac3d
000002b0: 9f0b b83c 8c71 15be d73d 603d 52dd 5abd
000002c0: 3758 b83c b5d8 fdbd 3724 e03c 3c86 50bd
000002d0: 9115 1c3e 0027 353d 4716 47bd 4edc fcbd
000002e0: d4c3 64bc ae11 8abd eac3 843c 7be8 4bbd
000002f0: 4310 c43c db47 1ebe 3f73 e1bd 6f2b 79bc
00000300: 74e7 503d e2a0 cfbc fd15 01be 6925 ddbd
00000310: d6d1 16bd 4217 c0bd 4ac2 c43c e969 ea3c
00000320: 3aa1 cebc 7dbe 86bd 32d9 0d3d c058 dbbd
00000330: 5ecf c3bd 1bad 2cbd 520c fd3d ffbc 2dbd
00000340: fbfb 5c3d dc73 5cbc 4bf5 e2bc 0c0b d1bd
00000350: c967 a63d 8a5a d43d 423e 9b3c 9185 b93d
00000360: 80fc 043e 6a10 be3d 77a9 7c3d b443 03be
00000370: 5795 0ebe 21a8 c2bd b614 953c 2562 ffbd
00000380: 50d3 8dbd 0d5d 1dbd 3ce4 c2bd beda 453d
00000390: 7238 153d ff78 bcbd 26f0 9f3d 719d 31bd
000003a0: ba6e 1bbd d2c5 e63d 67d9 c13d b916 793c
000003b0: fd43 c6bd 2cdb 84bd d763 fd3c 3e69 703d
000003c0: a07b 603d 75c2 3fbd d9d3 cbbd 7a0f 06be
000003d0: c14f 81bc 874b 7d3b 3c13 8cbd 7a30 aabd
000003e0: 0e37 c73c cc9a f5bd 9949 a9bd 9811 9dbd
000003f0: 97ea 1eb9 0b16 db3d d5d1 0c3c b96a b2bc

lstm.bias_ih_l0 f4 [256]
0.11822254 0.0014292314 0.124121495 0.023022646 -0.02895245 0.07221052 -0.05030161 0.06821796
-0.015335056 0.039798178 0.02501885 0.008004784 -0.061487325 0.0038740092 0.12360706 0.13633493
-0.06898265 0.023545662 0.07310827 0.10884777 0.1093058 -0.025238203 0.014088913 0.14545555
0.055721704 -0.028564842 -0.016307866 -0.024935815 -0.0772332 -0.036391053 0.1738097 0.012233675
0.13469124 -0.13750052 0.091876045 0.057775397 -0.08433478 0.01463914 0.076138504 -0.060121812
0.099883884 0.08915387 -0.1344933 -0.0036702133 0.12518077 0.017545816 -0.06438602 0.06705092
-0.05776391 0.073515214 -0.031408496 0.09318568 -0.08074628 0.00951678 -0.026440866 0.09212851
-0.09379544 0.12288399 0.119186826 -0.041503992 0.1096339 0.12987013 -0.055147722 0.07307426
0.066884436 0.007233527 0.1248585 -0.009140995 -0.01003279 0.07773775 0.09428386 0.12984872
-0.08887852 -0.006796214 -0.0066480134 -0.0068359105 0.0012862362 -0.011136304 -0.057874482 -0.006380474
-0.096445285 0.06891472 0.10370342 -0.029176548 0.13631676 0.077873625 -0.054865997 0.09694264
0.048086714 0.14422783 0.02570228 -0.020599315 0.13072443 -0.070219345 0.090897575 -0.08545383
0.011100571 -0.038317434 -0.08988477 -0.05272887 -0.0285784 0.019934643 0.061341062 -0.053140473
0.14184505 0.03460018 -0.0021666703 0.06247052 -0.04828684 0.022677427 -0.10118643 0.14673363
-0.0067209452 -0.08747514 0.04122951 -0.04958208 -0.10861491 -0.04876917 0.010270861 0.06458938
-0.10763983 0.015221156 0.018566797 -0.018016344 0.07542414 0.11678222 0.04225371 0.008708336
-0.009427127 -0.10170354 0.035231236 0.026314516 0.021559939 0.17086194 0.06948907 -0.0016519221
0.044662062 0.01665531 0.08693599 -0.02651963 -0.15513037 -0.07791856 0.050544195 0.086343065
0.059643857 0.06936727 0.084156886 0.046126403 0.06733818 -0.13963418 0.16226196 -0.010639554
-0.031270172 0.06536362 -0.13354023 -0.03467594 -0.049268596 0.08773081 -0.122325234 0.038966276
0.13171096 0.0006562745 0.027626716 -0.08937988 0.09995024 -0.12005885 0.0061752736 0.023645828
0.045012854 0.16537775 -0.009125527 0.1767101 0.0799501 0.014897395 -0.05727151 -0.050773434
-0.13354206 0.09567464 0.15224524 0.02962612 0.091672204 0.16772291 -0.027510952 0.029740874
0.006895649 -0.15131596 -0.03278345 0.040053226 -0.048297036 -0.034447882 0.042864747 -0.122819684
-0.056502517 -0.057626523 0.09962889 0.052201282 -0.074339226 -0.047982015 0.08848085 0.16245256
0.093828805 0.10746348 0.049520407 0.10202219 0.11643209 -0.0072453087 0.08199826 0.047190912
0.034308273 -0.088410795 -0.01787293 -0.026082247 -0.017291928 0.1556675 -0.009686194 0.08551272
0.030559434 0.062086593 -0.0030402276 -0.025198076 -0.061209876 0.07014637 -0.07186801 -0.083148316
0.16629894 0.029348735 0.022254193 -0.034275025 0.14133422 0.04929674 -0.052560356 0.12649369
0.17771187 0.03929422 0.07557562 -0.057037808 0.048987065 0.16283588 -0.09668265 -0.07614279
0.061918516 0.06700476 0.0697631 0.018402424 0.10771517 0.14459836 -0.08349231 -0.08906277
0.13291518 -0.008192076 0.08633132 0.094891615 0.06065504 -0.01494726 -0.051908843 -0.022334466
00000000: a91e f23d 0c55 bb3a 6933 fe3d fd99 bc3c
00000010: b02d edbc 1ce3 933d 1009 4ebd dcb5 8b3d
00000020: e33f 7bbc 6a03 233d 55f4 cc3c 7f26 033c
00000030: 22da 7bbd 17e3 7d3b b325 fd3d 629b 0b3e
00000040: c746 8dbd d5e2 c03c cab9 953d 94eb de3d
00000050: b8db df3d 59c0 cebc 2fd5 663c 4df2 143e
00000060: 713c 643d d100 eabc 1398 85bc 3246 ccbc
00000070: 712c 9ebd c90e 15bd 2cfb 313e c16f 483c
00000080: 80ec 093e f0cc 0cbe 8229 bc3d e5a5 6c3d
00000090: b7b7 acbd 01d9 6f3c 81ee 9b3d 4a42 76bd
000000a0: ec8f cc3d 4e96 b63d 9db8 09be f687 70bb
000000b0: 632f 003e 3ebc 8f3c d1dc 83bd fe51 893d
000000c0: da99 6cbd 258f 963d 32a6 00bd 22d8 be3d
000000d0: 4e5e a5bd 45ec 1b3c 849a d8bc dfad bc3d
000000e0: d317 c0bd 9aaa fb3d 3918 f43d 1700 2abd
000000f0: bd87 e03d adfc 043e 94e2 61bd f5a7 953d
00000100: b5fa 883d 3907 ed3b d0b5 ff3d 1dc4 15bc
00000110: 9260 24bc f834 9f3d e517 c13d 10f7 043e
00000120: f105 b6bd c6b2 debb 94d7 d9bb c6ff dfbb
00000130: ed96 a83a 0b75 36bc cb0d 6dbd 4c13 d1bb
00000140: 1b85 c5bd 2923 8d3d 7562 d43d a803 efbc
00000150: 9f96 0b3e 357c 9f3d 2bbb 60bd dd89 c63d
00000160: 93f6 443d 76b0 133e 978d d23c e5bf a8bc
00000170: a0dc 053e 29cf 8fbd 8228 ba3d 6b02 afbd
00000180: 2bdf 353c bef2 1cbd 8215 b8bd 3afa 57bd
00000190: 401d eabc fa4d a33c c440 7b3d d3a9 59bd
000001a0: d43f 113e ebb8 0d3d b2fe 0dbb 17e1 7f3d
000001b0: 6cc8 45bd 03c6 b93c d53a cfbd 5741 163e
000001c0: 603b dcbb 2b26 b3bd 46e0 283d 9416 4bbd
000001d0: 7e71 debd 2ec2 47bd 1d47 283c 7047 843d
000001e0: 4572 dcbd 2862 793c 6519 983c 0397 93bc
000001f0: f977 9a3d 842b ef3d 3a12 2d3d 69ad 0e3c
00000200: 3d74 1abc f249 d0bd a14e 103d 8a91 d73c
00000210: 789e b03c 6ff6 2e3e 4950 8e3d 4f85 d8ba
00000220: 91ef 363d b770 883c 7f0b b23d b23f d9bc
00000230: 7fda 1ebe c493 9fbd 6e07 4f3d a2d4 b03d
00000240: 1e4d 743d 6d10 8e3d 725a ac3d 0aef 3c3d
00000250: 9ae8 893d 43fc 0ebe 0028 263e 8651 2ebc
00000260: 2715 00bd 5ddd 853d c5be 08be 5c08 0ebd
00000270: decd 49bd 36ac b33d a785 fabd 1a9b 1f3d
00000280: 3ddf 063e d609 2c3a 6c51 e23c cc0c b7bd
00000290: b6b2 cc3d 6ae1 f5bd f359 ca3b e5b4 c13c
000002a0: 665f 383d c958 293e 3c83 15bc 7ef3 343e
000002b0: e1bc a33d 3414 743c 8895 6abd cef7 4fbd
000002c0: 40bf 08be 11f1 c33d 2de6 1b3e 7ab2 f23c
000002d0: a3be bb3d 8ebf 2b3e a65e e1bc 22a3 f33c
000002e0: e5f4 e13b 92f2 1abe f047 06bd da0e 243d
000002f0: 1dd3 45bd 3919 0dbd f292 2f3d e388 fbbd
00000300: 2f6f 67bd ca09 6cbd 3b0a cc3d 03d1 553d
00000310: 2a3f 98bd ca88 44bd 7335 b53d f759 263e
00000320: 5129 c03d d015 dc3d e9d5 4a3d 03f1 d03d
00000330: f373 ee3d 0e6a edbb b4ee a73d 424b 413d
00000340: d586 0c3d b810 b5bd 406a 92bc 70aa d5bc
00000350: cda7 8dbc 4d67 1f3e d8b2 1ebc 4b21 af3d
00000360: c757 fa3c 834e 7e3d 8e3e 47bb 326c cebc
00000370: 35b7 7abd e6a8 8f3d 892f 93bd aa49 aabd
00000380: 454a 2a3e c26c f03c 6d4e b63c f863 0cbd
00000390: ebb9 103e 61eb 493d 8749 57bd 9087 013e
000003a0: 1afa 353e faf2 203d 64c7 9a3d 7aa0 69bd
000003b0: a9a6 483d 73be 263e 8e01 c6bd c0f0 9bbd
000003c0: 459e 7d3d cb39 893d f5df 8e3d aec0 963c
000003d0: c599 dc3d 9811 143e 04fe aabd 8b66 b6bd
000003e0: eb1a 083e 0f38 06bc 7ace b03d 8956 c23d
000003f0: 6b71 783d 5ae5 74bc 5e9e 54bd c5f6 b6bc

lstm.bias_hh_l0 f4 [256]
0.0909472 0.016943458 -0.036326032 -0.07448173 0.10795608 0.06560357 -0.09322818 0.031278234
0.010589699 0.021239996 0.07936811 0.08389207 -0.071104854 0.06378922 0.0838845 0.036750205
0.07856067 0.13095148 0.07657134 0.15195157 0.077211455 -0.040133107 0.12187588 -0.010378202
-0.04674358 -0.072022766 0.057473563 0.14938918 -0.0024851903 0.06745495 0.090321206 0.10432286
0.15687546 0.043561853 -0.011459881 0.006429683 -0.087209396 -0.051954675 -0.024361817 0.11245625
0.07341269 0.016057238 0.06146292 0.032965332 0.13276961 0.14609955 -0.09272975 0.1350518
0.12489258 0.017640788 0.07839434 -0.036169067 -0.05388728 -0.024247069 -0.05533963 0.006046613
-0.10375 0.02388532 0.1339196 -0.030605786 -0.015589109 0.04225956 -0.030746501 0.073143475
-0.079569615 0.058153316 0.15084273 0.030194256 0.15459861 -0.067582965 -0.037762478 -0.006808217
0.14228858 -0.09023148 0.025856012 -0.073039964 0.059287034 -0.049184464 -0.086716816 -0.016574375
-0.059908338 0.09860779 0.055411644 -0.08484446 0.13655937 0.029469568 0.0764643 -0.026989948
-0.021955013 -0.055619318 -0.06163105 -0.034059364 0.10251642 -0.0029227815 -0.06873114 0.05764875
0.008180902 -0.11492941 0.12874942 -0.09961965 -0.1000819 0.10925639 0.10518044 -0.014160692
0.12811865 -0.06650348 -0.076269664 0.016398033 -0.011236931 0.105383195 -0.10693546 0.12682214
0.11167868 -0.040458165 -0.035663676 0.061342727 -0.011153969 -0.07165014 0.13098422 0.11881853
0.11723312 0.093177885 -0.03983194 -0.029346125 -0.029026076 0.06396774 0.09444072 0.050638817
-0.17175712 -0.12505598 -0.016779665 -0.12827538 0.11033176 0.05601454 -0.1434603 -0.11334521
-0.03468631 -0.0400203 0.082744986 -0.11104236 -0.15666178 0.037659314 0.042177726 -0.04867634
0.0154777095 -0.008748541 0.0607621 0.008487532 -0.08785078 -0.15713426 0.12434429 0.16281596
0.1639249 0.115710355 0.06566943 -0.008733957 -0.16271748 0.08675068 -0.1465676 -0.14229928
0.087194994 -0.0771424 -0.12123622 0.0999892 0.08658005 0.006417477 0.013261145 0.093971126
0.043822102 0.023179594 -0.051401835 0.14577025 -0.03499635 0.015386331 0.075308025 -0.044379395
0.00983727 -0.0057498105 0.12433575 -0.13106833 -0.051751748 -0.06361001 -0.14349273 0.11604634
0.1299693 0.020312129 0.11185697 0.13159744 0.115858875 0.12530059 -0.039119236 0.042665448
0.13029826 0.067828104 0.029351462 0.1441671 0.03613737 -0.063627064 -0.008376348 0.042246565
0.10994139 0.07819109 0.076884694 0.15550567 0.13477506 -0.011111135 -0.02668255 0.06910509
-0.017041305 -0.06599772 0.016361462 0.14180385 -0.087740034 0.059138715 0.07703663 0.012593932
-0.0004425012 -0.02028336 -0.060764898 -0.06557478 0.1068233 0.05623668 0.03748319 0.01204349
-0.063702956 -0.043062463 -0.07241958 0.08460514 -0.013050805 0.01224434 0.09559054 -0.04828264
-0.019873692 -0.05279266 -0.042370766 -0.035816804 -0.07897166 0.0962323 0.09387545 -0.009374687
-0.04526134 0.11820387 -0.03751477 -0.042770986 -0.109056756 0.08510795 0.06824301 0.14831482
-0.022174617 -0.035409134 0.18444453 0.13663743 -0.078636296 -0.067533724 0.07948681 0.012061803
00000000: 8742 ba3d 02cd 8a3c 9bca 14bd e189 98bd
00000010: 1418 dd3d 2a5b 863d 6bee bebd 9b1d 003d
00000020: 6b80 2d3c 80ff ad3c bf8b a23d 9bcf ab3d
00000030: 6c9f 91bd eca3 823d a3cb ab3d 6287 163d
00000040: 6be4 a03d 2518 063e 6fd1 9c3d 3199 1b3e
00000050: 0a21 9e3d 9d62 24bd 109a f93d 5609 2abc
00000060: 3276 3fbd ac80 93bd 6669 6b3d 7af9 183e
00000070: 93de 22bb d225 8a3d 53fa b83d 39a7 d53d
00000080: f6a3 203e ea6d 323d 3ac2 3bbc 17b0 d23b
00000090: d79a b2bd 6dce 54bd 6f92 c7bc 764f e63d
000000a0: 6459 963d 788a 833c 8bc0 7b3d a806 073d
000000b0: c2f4 073e 1f9b 153e 18e9 bdbd 054b 0a3e
000000c0: aec7 ff3d 6a83 903c 368d a03d 0426 14bd
000000d0: e9b8 5cbd caa1 c6bc cfab 62bd ab22 c63b
000000e0: e17a d4bd 26ab c33c 3822 093e fcb8 fabc
000000f0: 7669 7fbc 5c18 2d3d 16e0 fbbc 3fcc 953d
00000100: 65f5 a2bd 2c32 6e3d 8476 1a3e f259 f73c
00000110: 194f 1e3e f068 8abd d4ac 1abd 7717 dfbb
00000120: 19b4 113e 48cb b8bd fdcf d33c fa95 95bd
00000130: f6d6 723d a675 49bd 9698 b1bd fcc6 87bc
00000140: 7262 75bd e2f2 c93d 52f7 623d efc2 adbd
00000150: 38d6 0b3e 2a6a f13c 5199 9c3d 061a ddbc
00000160: 00db b3bc 15d1 63bd d770 7cbd d581 0bbd
00000170: 21f4 d13d 238c 3fbb e9c2 8cbd 1821 6c3d
00000180: 3109 063c 1c60 ebbd e3d6 033e 6305 ccbd
00000190: bdf7 ccbd d0c1 df3d d868 d73d 3f02 68bc
000001a0: 8931 033e fa32 88bd 4533 9cbd 2b55 863c
000001b0: 1b1b 38bc 25d3 d73d fa00 dbbd aadd 013e
000001c0: cbb7 e43d 76b7 25bd 1314 12bd 8342 7b3d
000001d0: 23bf 36bc 4fbd 92bd ba20 063e 2157 f33d
000001e0: eb17 f03d 0cd4 be3d d126 23bd 4967 f0bc
000001f0: 18c8 edbc 8501 833d 236a c13d a66a 4f3d
00000200: 19e1 2fbe ad0e 00be 8275 89bc 9f5a 03be
00000210: 9ef5 e13d 816f 653d 42e7 12be 8921 e8bd
00000220: 3b13 0ebd 53ec 23bd 3476 a93d 2d6a e3bd
00000230: f26b 20be a740 1a3d 8dc2 2c3d d860 47bd
00000240: 3896 7d3c 0a56 0fbc aee1 783d 4a0f 0b3c
00000250: 1ceb b3bd cee7 20be 38a8 fe3d 3ab9 263e
00000260: eedb 273e 8df9 ec3d b27d 863d df18 0fbc
00000270: 699f 26be 57aa b13d d115 16be e7b6 11be
00000280: 4a93 b23d d6fc 9dbd b24a f8bd 23c7 cc3d
00000290: e250 b13d b349 d23b 4645 593c ef73 c03d
000002a0: ce7e 333d 22e3 bd3c bb8a 52bd cc44 153e
000002b0: 5558 0fbd f316 7c3c 183b 9a3d 2bc7 35bd
000002c0: 802c 213c e868 bcbb bea3 fe3d c736 06be
000002d0: a4f9 53bd f745 82bd c2ef 12be b4a9 ed3d
000002e0: ac16 053e 9f65 a63c 4415 e53d 7bc1 063e
000002f0: 6b47 ed3d cc4e 003e 7e3b 20bd f7c1 2e3d
00000300: e86c 053e 76e9 8a3d 7a72 f03c 8aa0 133e
00000310: c704 143d e84e 82bd f33c 09bc bc0a 2d3d
00000320: f428 e13d a622 a03d b975 9d3d e13c 1f3e
00000330: 7902 0a3e 7a0b 36bc 5d95 dabc f886 8d3d
00000340: 359a 8bbc d029 87bd 7908 863c 0735 113e
00000350: 0cb1 b3bd 703b 723d 61c5 9d3d c856 4e3c
00000360: 81ff e7b9 4a29 a6bc 9de4 78bd 124c 86bd
00000370: 2dc6 da3d 6f58 663d f987 193d 0f52 453c
00000380: b276 82bd 4462 30bd b750 94bd 7645 ad3d
00000390: 0bd3 55bc 7c9c 483c f9c4 c33d 04c4 45bd
000003a0: 27ce a2bc 1e3d 58bd f88c 2dbd a4b4 12bd
000003b0: e5bb a1bd 7115 c53d c641 c03d 4a98 19bc
000003c0: f463 39bd df14 f23d 16a9 19bd a130 2fbd
000003d0: 2659 dfbd 144d ae3d fec2 8b3d d7df 173e
000003e0: 8ba7 b5bc 2b09 11bd 07df 3c3e afea 0b3e
000003f0: 110c a1bd 1f4f 8abd fbc9 a23d de9e 453c

classifier.weight f4 [2, 64]
-0.044339713 -0.07234728 0.02326166 0.037592724 0.11070048 0.10931775 -0.1399825 -0.107782416
0.120388724 0.13414066 -0.0065085157 -0.17891093 -0.12605186 0.19532536 0.15387365 0.15254015
-0.04521753 -0.114683345 0.10970688 -0.16353738 -0.08266563 -0.017461678 0.105065204 0.12652764
0.06903278 0.14633839 -0.19357288 -0.12955537 -0.10410204 0.13275047 -0.16686575 0.03316176
-0.017294468 -0.08003791 0.02198933 0.060196213 0.098525755 -0.09983385 0.1518002 0.06426455
0.14595844 0.109435365 0.0015110517 0.1721149 0.12822583 0.17941242 0.059329942 -0.048101146
-0.12747599 0.024610331 0.045354646 -0.10826828 0.030917898 0.19514018 0.0076369634 0.09369455
0.12723579 -0.13946013 0.115698524 0.18236203 0.099047884 0.05766757 0.16188636 -0.18487306
0.13668658 0.039941736 -0.1773548 0.13918331 -0.09470945 -0.0997815 -0.010975089 0.022633357
-0.08117655 -0.18816724 0.08057251 0.07262422 0.10523221 0.052197192 -0.08027196 -0.16173483
-0.10891659 0.030033994 -0.088824034 0.103397764 0.076957725 0.10698543 -0.11949004 -0.17266715
-0.05689504 -0.036013167 0.011555554 0.020450534 0.04352464 -0.17143449 0.18595433 0.14906044
-0.14637278 -0.07680763 0.17933393 0.16592284 -0.17328529 0.09962466 -0.14277352 -0.16231775
-0.15758303 -0.05489447 0.1111955 0.0041100197 -0.18339546 0.0053652567 0.17215587 0.16047399
0.18447213 -0.1393108 -0.1288532 0.13693236 -0.11633044 -0.10897602 0.16441874 -0.02107331
-0.09570589 0.118883975 -0.123891674 -0.13621281 -0.021117343 -0.11607061 0.02602677 0.13781437
00000000: 8f9d 35bd d02a 94bd 3d8f be3c d4fa 193d
00000010: efb6 e23d fce1 df3d 9357 0fbe 07bd dcbd
00000020: 5d8e f63d 2b5c 093e 6345 d5bb 6d34 37be
00000030: bd13 01be 5f03 483e 0e91 1d3e 7c33 1c3e
00000040: 0436 39bd 1adf eabd 00ae e03d 5876 27be
00000050: 994c a9bd cb0b 8fbc 6d2c d73d 7690 013e
00000060: 0f61 8d3d bbd9 153e f837 46be 2aaa 04be
00000070: 7333 d5bd bdef 073e dbde 2abe a0d4 073d
00000080: 21ad 8dbc eaea a3bd f822 b43c 4e90 763d
00000090: dfc7 c93d b175 ccbd 8371 1b3e 229d 833d
000000a0: 2176 153e a61f e03d 7b0e c63a e33e 303e
000000b0: a24d 033e e4b7 373e f403 733d b505 45bd
000000c0: 1189 02be 9b9b c93c cbc5 393d c3bb ddbd
000000d0: 8847 fd3c d4d2 473e 7e3f fa3b eee2 bf3d
000000e0: 194a 023e a3ce 0ebe 59f3 ec3d 1dbd 3a3e
000000f0: 9ed9 ca3d d434 6c3d 8ac5 253e 5d4f 3dbe
00000100: 91f7 0b3e f299 233d 7f9c 35be 1286 0e3e
00000110: 07f7 c1bd 3e5a ccbd dcd0 33bc 9769 b93c
00000120: e43f a6bd eaae 40be 3303 a53d 02bc 943d
00000130: fc83 d73d b9cc 553d a065 a4bd d19d 25be
00000140: a90f dfbd da09 f63c 60e9 b5bd 35c2 d33d
00000150: 039c 9d3d 2d1b db3d 32b7 f4bd a8cf 30be
00000160: c60a 69bd 8b82 13bd 8253 3d3c e187 a73c
00000170: e546 323d 868c 2fbe d06a 3e3e 4da3 183e
00000180: bfe2 15be 524d 9dbd 50a3 373e ade7 293e
00000190: b371 31be 0408 cc3d 3933 12be a036 26be
000001a0: 725d 21be 06d9 60bd 77ba e33d 58ad 863b
000001b0: 05cc 3bbe 09cf af3b a149 303e 4b53 243e
000001c0: 43e6 3c3e 7ea7 0ebe 18f2 03be ff37 0c3e
000001d0: a73e eebd d22e dfbd 635d 283e efa1 acbc
000001e0: 7301 c4bd 7179 f33d ebba fdbd 5f7b 0bbe
000001f0: 47fe acbc 6eb6 edbd 1836 d53c 361f 0d3e

classifier.bias f4 [2]
0.12178666 0.0438626
00000000: 496b f93d 45a9 333d
